ir_version: 6
producer_name: "pytorch"
producer_version: "1.8"
model_version: 0
graph {
  name: "torch-jit-export"
  node {
    input: "image"
    input: "1967"
    input: "1968"
    output: "1966"
    name: "Conv_0"
    op_type: "Conv"
    attribute {
      name: "dilations"
      ints: 1
      ints: 1
      type: INTS
    }
    attribute {
      name: "group"
      i: 1
      type: INT
    }
    attribute {
      name: "kernel_shape"
      ints: 3
      ints: 3
      type: INTS
    }
    attribute {
      name: "pads"
      ints: 1
      ints: 1
      ints: 1
      ints: 1
      type: INTS
    }
    attribute {
      name: "strides"
      ints: 1
      ints: 1
      type: INTS
    }
  }
  node {
    input: "1966"
    output: "801"
    name: "Relu_1"
    op_type: "Relu"
  }
  node {
    input: "801"
    input: "1970"
    input: "1971"
    output: "1969"
    name: "Conv_2"
    op_type: "Conv"
    attribute {
      name: "dilations"
      ints: 1
      ints: 1
      type: INTS
    }
    attribute {
      name: "group"
      i: 1
      type: INT
    }
    attribute {
      name: "kernel_shape"
      ints: 3
      ints: 3
      type: INTS
    }
    attribute {
      name: "pads"
      ints: 1
      ints: 1
      ints: 1
      ints: 1
      type: INTS
    }
    attribute {
      name: "strides"
      ints: 1
      ints: 1
      type: INTS
    }
  }
  node {
    input: "1969"
    output: "804"
    name: "Relu_3"
    op_type: "Relu"
  }
  node {
    input: "804"
    output: "805"
    name: "MaxPool_4"
    op_type: "MaxPool"
    attribute {
      name: "ceil_mode"
      i: 1
      type: INT
    }
    attribute {
      name: "kernel_shape"
      ints: 2
      ints: 2
      type: INTS
    }
    attribute {
      name: "pads"
      ints: 0
      ints: 0
      ints: 0
      ints: 0
      type: INTS
    }
    attribute {
      name: "strides"
      ints: 2
      ints: 2
      type: INTS
    }
  }
  node {
    input: "805"
    input: "1973"
    input: "1974"
    output: "1972"
    name: "Conv_5"
    op_type: "Conv"
    attribute {
      name: "dilations"
      ints: 1
      ints: 1
      type: INTS
    }
    attribute {
      name: "group"
      i: 1
      type: INT
    }
    attribute {
      name: "kernel_shape"
      ints: 3
      ints: 3
      type: INTS
    }
    attribute {
      name: "pads"
      ints: 1
      ints: 1
      ints: 1
      ints: 1
      type: INTS
    }
    attribute {
      name: "strides"
      ints: 1
      ints: 1
      type: INTS
    }
  }
  node {
    input: "1972"
    output: "808"
    name: "Relu_6"
    op_type: "Relu"
  }
  node {
    input: "808"
    output: "809"
    name: "MaxPool_7"
    op_type: "MaxPool"
    attribute {
      name: "ceil_mode"
      i: 1
      type: INT
    }
    attribute {
      name: "kernel_shape"
      ints: 2
      ints: 2
      type: INTS
    }
    attribute {
      name: "pads"
      ints: 0
      ints: 0
      ints: 0
      ints: 0
      type: INTS
    }
    attribute {
      name: "strides"
      ints: 2
      ints: 2
      type: INTS
    }
  }
  node {
    input: "809"
    input: "1976"
    input: "1977"
    output: "1975"
    name: "Conv_8"
    op_type: "Conv"
    attribute {
      name: "dilations"
      ints: 1
      ints: 1
      type: INTS
    }
    attribute {
      name: "group"
      i: 1
      type: INT
    }
    attribute {
      name: "kernel_shape"
      ints: 3
      ints: 3
      type: INTS
    }
    attribute {
      name: "pads"
      ints: 1
      ints: 1
      ints: 1
      ints: 1
      type: INTS
    }
    attribute {
      name: "strides"
      ints: 1
      ints: 1
      type: INTS
    }
  }
  node {
    input: "1975"
    output: "812"
    name: "Relu_9"
    op_type: "Relu"
  }
  node {
    input: "812"
    output: "813"
    name: "MaxPool_10"
    op_type: "MaxPool"
    attribute {
      name: "ceil_mode"
      i: 1
      type: INT
    }
    attribute {
      name: "kernel_shape"
      ints: 2
      ints: 2
      type: INTS
    }
    attribute {
      name: "pads"
      ints: 0
      ints: 0
      ints: 0
      ints: 0
      type: INTS
    }
    attribute {
      name: "strides"
      ints: 2
      ints: 2
      type: INTS
    }
  }
  node {
    input: "813"
    input: "1979"
    input: "1980"
    output: "1978"
    name: "Conv_11"
    op_type: "Conv"
    attribute {
      name: "dilations"
      ints: 1
      ints: 1
      type: INTS
    }
    attribute {
      name: "group"
      i: 1
      type: INT
    }
    attribute {
      name: "kernel_shape"
      ints: 3
      ints: 3
      type: INTS
    }
    attribute {
      name: "pads"
      ints: 1
      ints: 1
      ints: 1
      ints: 1
      type: INTS
    }
    attribute {
      name: "strides"
      ints: 1
      ints: 1
      type: INTS
    }
  }
  node {
    input: "1978"
    output: "816"
    name: "Relu_12"
    op_type: "Relu"
  }
  node {
    input: "816"
    output: "817"
    name: "MaxPool_13"
    op_type: "MaxPool"
    attribute {
      name: "ceil_mode"
      i: 1
      type: INT
    }
    attribute {
      name: "kernel_shape"
      ints: 2
      ints: 2
      type: INTS
    }
    attribute {
      name: "pads"
      ints: 0
      ints: 0
      ints: 0
      ints: 0
      type: INTS
    }
    attribute {
      name: "strides"
      ints: 2
      ints: 2
      type: INTS
    }
  }
  node {
    input: "817"
    input: "1982"
    input: "1983"
    output: "1981"
    name: "Conv_14"
    op_type: "Conv"
    attribute {
      name: "dilations"
      ints: 1
      ints: 1
      type: INTS
    }
    attribute {
      name: "group"
      i: 1
      type: INT
    }
    attribute {
      name: "kernel_shape"
      ints: 3
      ints: 3
      type: INTS
    }
    attribute {
      name: "pads"
      ints: 1
      ints: 1
      ints: 1
      ints: 1
      type: INTS
    }
    attribute {
      name: "strides"
      ints: 1
      ints: 1
      type: INTS
    }
  }
  node {
    input: "1981"
    output: "820"
    name: "Relu_15"
    op_type: "Relu"
  }
  node {
    input: "820"
    output: "821"
    name: "MaxPool_16"
    op_type: "MaxPool"
    attribute {
      name: "ceil_mode"
      i: 1
      type: INT
    }
    attribute {
      name: "kernel_shape"
      ints: 2
      ints: 2
      type: INTS
    }
    attribute {
      name: "pads"
      ints: 0
      ints: 0
      ints: 0
      ints: 0
      type: INTS
    }
    attribute {
      name: "strides"
      ints: 2
      ints: 2
      type: INTS
    }
  }
  node {
    input: "821"
    input: "1985"
    input: "1986"
    output: "1984"
    name: "Conv_17"
    op_type: "Conv"
    attribute {
      name: "dilations"
      ints: 1
      ints: 1
      type: INTS
    }
    attribute {
      name: "group"
      i: 1
      type: INT
    }
    attribute {
      name: "kernel_shape"
      ints: 3
      ints: 3
      type: INTS
    }
    attribute {
      name: "pads"
      ints: 1
      ints: 1
      ints: 1
      ints: 1
      type: INTS
    }
    attribute {
      name: "strides"
      ints: 1
      ints: 1
      type: INTS
    }
  }
  node {
    input: "1984"
    output: "824"
    name: "Relu_18"
    op_type: "Relu"
  }
  node {
    input: "824"
    input: "1988"
    input: "1989"
    output: "1987"
    name: "Conv_19"
    op_type: "Conv"
    attribute {
      name: "dilations"
      ints: 2
      ints: 2
      type: INTS
    }
    attribute {
      name: "group"
      i: 1
      type: INT
    }
    attribute {
      name: "kernel_shape"
      ints: 3
      ints: 3
      type: INTS
    }
    attribute {
      name: "pads"
      ints: 2
      ints: 2
      ints: 2
      ints: 2
      type: INTS
    }
    attribute {
      name: "strides"
      ints: 1
      ints: 1
      type: INTS
    }
  }
  node {
    input: "1987"
    output: "827"
    name: "Relu_20"
    op_type: "Relu"
  }
  node {
    input: "827"
    input: "824"
    output: "828"
    name: "Concat_21"
    op_type: "Concat"
    attribute {
      name: "axis"
      i: 1
      type: INT
    }
  }
  node {
    input: "828"
    input: "1991"
    input: "1992"
    output: "1990"
    name: "Conv_22"
    op_type: "Conv"
    attribute {
      name: "dilations"
      ints: 1
      ints: 1
      type: INTS
    }
    attribute {
      name: "group"
      i: 1
      type: INT
    }
    attribute {
      name: "kernel_shape"
      ints: 3
      ints: 3
      type: INTS
    }
    attribute {
      name: "pads"
      ints: 1
      ints: 1
      ints: 1
      ints: 1
      type: INTS
    }
    attribute {
      name: "strides"
      ints: 1
      ints: 1
      type: INTS
    }
  }
  node {
    input: "1990"
    output: "831"
    name: "Relu_23"
    op_type: "Relu"
  }
  node {
    input: "820"
    output: "832"
    name: "Shape_24"
    op_type: "Shape"
  }
  node {
    output: "833"
    name: "Constant_25"
    op_type: "Constant"
    attribute {
      name: "value"
      t {
        data_type: 7
      }
      type: TENSOR
    }
  }
  node {
    input: "832"
    input: "833"
    output: "834"
    name: "Gather_26"
    op_type: "Gather"
    attribute {
      name: "axis"
      i: 0
      type: INT
    }
  }
  node {
    input: "820"
    output: "835"
    name: "Shape_27"
    op_type: "Shape"
  }
  node {
    output: "836"
    name: "Constant_28"
    op_type: "Constant"
    attribute {
      name: "value"
      t {
        data_type: 7
      }
      type: TENSOR
    }
  }
  node {
    input: "835"
    input: "836"
    output: "837"
    name: "Gather_29"
    op_type: "Gather"
    attribute {
      name: "axis"
      i: 0
      type: INT
    }
  }
  node {
    input: "834"
    output: "838"
    name: "Unsqueeze_30"
    op_type: "Unsqueeze"
    attribute {
      name: "axes"
      ints: 0
      type: INTS
    }
  }
  node {
    input: "837"
    output: "839"
    name: "Unsqueeze_31"
    op_type: "Unsqueeze"
    attribute {
      name: "axes"
      ints: 0
      type: INTS
    }
  }
  node {
    input: "838"
    input: "839"
    output: "840"
    name: "Concat_32"
    op_type: "Concat"
    attribute {
      name: "axis"
      i: 0
      type: INT
    }
  }
  node {
    input: "831"
    output: "841"
    name: "Shape_33"
    op_type: "Shape"
  }
  node {
    output: "842"
    name: "Constant_34"
    op_type: "Constant"
    attribute {
      name: "value"
      t {
        dims: 1
        data_type: 7
      }
      type: TENSOR
    }
  }
  node {
    output: "843"
    name: "Constant_35"
    op_type: "Constant"
    attribute {
      name: "value"
      t {
        dims: 1
        data_type: 7
      }
      type: TENSOR
    }
  }
  node {
    output: "844"
    name: "Constant_36"
    op_type: "Constant"
    attribute {
      name: "value"
      t {
        dims: 1
        data_type: 7
      }
      type: TENSOR
    }
  }
  node {
    input: "841"
    input: "843"
    input: "844"
    input: "842"
    output: "845"
    name: "Slice_37"
    op_type: "Slice"
  }
  node {
    input: "840"
    output: "846"
    name: "Cast_38"
    op_type: "Cast"
    attribute {
      name: "to"
      i: 7
      type: INT
    }
  }
  node {
    input: "845"
    input: "846"
    output: "847"
    name: "Concat_39"
    op_type: "Concat"
    attribute {
      name: "axis"
      i: 0
      type: INT
    }
  }
  node {
    output: "848"
    name: "Constant_40"
    op_type: "Constant"
    attribute {
      name: "value"
      t {
        dims: 0
        data_type: 1
      }
      type: TENSOR
    }
  }
  node {
    output: "849"
    name: "Constant_41"
    op_type: "Constant"
    attribute {
      name: "value"
      t {
        dims: 0
        data_type: 1
      }
      type: TENSOR
    }
  }
  node {
    input: "831"
    input: "848"
    input: "849"
    input: "847"
    output: "850"
    name: "Resize_42"
    op_type: "Resize"
    attribute {
      name: "coordinate_transformation_mode"
      s: "pytorch_half_pixel"
      type: STRING
    }
    attribute {
      name: "cubic_coeff_a"
      f: -0.75
      type: FLOAT
    }
    attribute {
      name: "mode"
      s: "linear"
      type: STRING
    }
    attribute {
      name: "nearest_mode"
      s: "floor"
      type: STRING
    }
  }
  node {
    input: "850"
    input: "820"
    output: "851"
    name: "Concat_43"
    op_type: "Concat"
    attribute {
      name: "axis"
      i: 1
      type: INT
    }
  }
  node {
    input: "851"
    input: "1994"
    input: "1995"
    output: "1993"
    name: "Conv_44"
    op_type: "Conv"
    attribute {
      name: "dilations"
      ints: 1
      ints: 1
      type: INTS
    }
    attribute {
      name: "group"
      i: 1
      type: INT
    }
    attribute {
      name: "kernel_shape"
      ints: 3
      ints: 3
      type: INTS
    }
    attribute {
      name: "pads"
      ints: 1
      ints: 1
      ints: 1
      ints: 1
      type: INTS
    }
    attribute {
      name: "strides"
      ints: 1
      ints: 1
      type: INTS
    }
  }
  node {
    input: "1993"
    output: "854"
    name: "Relu_45"
    op_type: "Relu"
  }
  node {
    input: "816"
    output: "855"
    name: "Shape_46"
    op_type: "Shape"
  }
  node {
    output: "856"
    name: "Constant_47"
    op_type: "Constant"
    attribute {
      name: "value"
      t {
        data_type: 7
      }
      type: TENSOR
    }
  }
  node {
    input: "855"
    input: "856"
    output: "857"
    name: "Gather_48"
    op_type: "Gather"
    attribute {
      name: "axis"
      i: 0
      type: INT
    }
  }
  node {
    input: "816"
    output: "858"
    name: "Shape_49"
    op_type: "Shape"
  }
  node {
    output: "859"
    name: "Constant_50"
    op_type: "Constant"
    attribute {
      name: "value"
      t {
        data_type: 7
      }
      type: TENSOR
    }
  }
  node {
    input: "858"
    input: "859"
    output: "860"
    name: "Gather_51"
    op_type: "Gather"
    attribute {
      name: "axis"
      i: 0
      type: INT
    }
  }
  node {
    input: "857"
    output: "861"
    name: "Unsqueeze_52"
    op_type: "Unsqueeze"
    attribute {
      name: "axes"
      ints: 0
      type: INTS
    }
  }
  node {
    input: "860"
    output: "862"
    name: "Unsqueeze_53"
    op_type: "Unsqueeze"
    attribute {
      name: "axes"
      ints: 0
      type: INTS
    }
  }
  node {
    input: "861"
    input: "862"
    output: "863"
    name: "Concat_54"
    op_type: "Concat"
    attribute {
      name: "axis"
      i: 0
      type: INT
    }
  }
  node {
    input: "854"
    output: "864"
    name: "Shape_55"
    op_type: "Shape"
  }
  node {
    output: "865"
    name: "Constant_56"
    op_type: "Constant"
    attribute {
      name: "value"
      t {
        dims: 1
        data_type: 7
      }
      type: TENSOR
    }
  }
  node {
    output: "866"
    name: "Constant_57"
    op_type: "Constant"
    attribute {
      name: "value"
      t {
        dims: 1
        data_type: 7
      }
      type: TENSOR
    }
  }
  node {
    output: "867"
    name: "Constant_58"
    op_type: "Constant"
    attribute {
      name: "value"
      t {
        dims: 1
        data_type: 7
      }
      type: TENSOR
    }
  }
  node {
    input: "864"
    input: "866"
    input: "867"
    input: "865"
    output: "868"
    name: "Slice_59"
    op_type: "Slice"
  }
  node {
    input: "863"
    output: "869"
    name: "Cast_60"
    op_type: "Cast"
    attribute {
      name: "to"
      i: 7
      type: INT
    }
  }
  node {
    input: "868"
    input: "869"
    output: "870"
    name: "Concat_61"
    op_type: "Concat"
    attribute {
      name: "axis"
      i: 0
      type: INT
    }
  }
  node {
    output: "871"
    name: "Constant_62"
    op_type: "Constant"
    attribute {
      name: "value"
      t {
        dims: 0
        data_type: 1
      }
      type: TENSOR
    }
  }
  node {
    output: "872"
    name: "Constant_63"
    op_type: "Constant"
    attribute {
      name: "value"
      t {
        dims: 0
        data_type: 1
      }
      type: TENSOR
    }
  }
  node {
    input: "854"
    input: "871"
    input: "872"
    input: "870"
    output: "873"
    name: "Resize_64"
    op_type: "Resize"
    attribute {
      name: "coordinate_transformation_mode"
      s: "pytorch_half_pixel"
      type: STRING
    }
    attribute {
      name: "cubic_coeff_a"
      f: -0.75
      type: FLOAT
    }
    attribute {
      name: "mode"
      s: "linear"
      type: STRING
    }
    attribute {
      name: "nearest_mode"
      s: "floor"
      type: STRING
    }
  }
  node {
    input: "873"
    input: "816"
    output: "874"
    name: "Concat_65"
    op_type: "Concat"
    attribute {
      name: "axis"
      i: 1
      type: INT
    }
  }
  node {
    input: "874"
    input: "1997"
    input: "1998"
    output: "1996"
    name: "Conv_66"
    op_type: "Conv"
    attribute {
      name: "dilations"
      ints: 1
      ints: 1
      type: INTS
    }
    attribute {
      name: "group"
      i: 1
      type: INT
    }
    attribute {
      name: "kernel_shape"
      ints: 3
      ints: 3
      type: INTS
    }
    attribute {
      name: "pads"
      ints: 1
      ints: 1
      ints: 1
      ints: 1
      type: INTS
    }
    attribute {
      name: "strides"
      ints: 1
      ints: 1
      type: INTS
    }
  }
  node {
    input: "1996"
    output: "877"
    name: "Relu_67"
    op_type: "Relu"
  }
  node {
    input: "812"
    output: "878"
    name: "Shape_68"
    op_type: "Shape"
  }
  node {
    output: "879"
    name: "Constant_69"
    op_type: "Constant"
    attribute {
      name: "value"
      t {
        data_type: 7
      }
      type: TENSOR
    }
  }
  node {
    input: "878"
    input: "879"
    output: "880"
    name: "Gather_70"
    op_type: "Gather"
    attribute {
      name: "axis"
      i: 0
      type: INT
    }
  }
  node {
    input: "812"
    output: "881"
    name: "Shape_71"
    op_type: "Shape"
  }
  node {
    output: "882"
    name: "Constant_72"
    op_type: "Constant"
    attribute {
      name: "value"
      t {
        data_type: 7
      }
      type: TENSOR
    }
  }
  node {
    input: "881"
    input: "882"
    output: "883"
    name: "Gather_73"
    op_type: "Gather"
    attribute {
      name: "axis"
      i: 0
      type: INT
    }
  }
  node {
    input: "880"
    output: "884"
    name: "Unsqueeze_74"
    op_type: "Unsqueeze"
    attribute {
      name: "axes"
      ints: 0
      type: INTS
    }
  }
  node {
    input: "883"
    output: "885"
    name: "Unsqueeze_75"
    op_type: "Unsqueeze"
    attribute {
      name: "axes"
      ints: 0
      type: INTS
    }
  }
  node {
    input: "884"
    input: "885"
    output: "886"
    name: "Concat_76"
    op_type: "Concat"
    attribute {
      name: "axis"
      i: 0
      type: INT
    }
  }
  node {
    input: "877"
    output: "887"
    name: "Shape_77"
    op_type: "Shape"
  }
  node {
    output: "888"
    name: "Constant_78"
    op_type: "Constant"
    attribute {
      name: "value"
      t {
        dims: 1
        data_type: 7
      }
      type: TENSOR
    }
  }
  node {
    output: "889"
    name: "Constant_79"
    op_type: "Constant"
    attribute {
      name: "value"
      t {
        dims: 1
        data_type: 7
      }
      type: TENSOR
    }
  }
  node {
    output: "890"
    name: "Constant_80"
    op_type: "Constant"
    attribute {
      name: "value"
      t {
        dims: 1
        data_type: 7
      }
      type: TENSOR
    }
  }
  node {
    input: "887"
    input: "889"
    input: "890"
    input: "888"
    output: "891"
    name: "Slice_81"
    op_type: "Slice"
  }
  node {
    input: "886"
    output: "892"
    name: "Cast_82"
    op_type: "Cast"
    attribute {
      name: "to"
      i: 7
      type: INT
    }
  }
  node {
    input: "891"
    input: "892"
    output: "893"
    name: "Concat_83"
    op_type: "Concat"
    attribute {
      name: "axis"
      i: 0
      type: INT
    }
  }
  node {
    output: "894"
    name: "Constant_84"
    op_type: "Constant"
    attribute {
      name: "value"
      t {
        dims: 0
        data_type: 1
      }
      type: TENSOR
    }
  }
  node {
    output: "895"
    name: "Constant_85"
    op_type: "Constant"
    attribute {
      name: "value"
      t {
        dims: 0
        data_type: 1
      }
      type: TENSOR
    }
  }
  node {
    input: "877"
    input: "894"
    input: "895"
    input: "893"
    output: "896"
    name: "Resize_86"
    op_type: "Resize"
    attribute {
      name: "coordinate_transformation_mode"
      s: "pytorch_half_pixel"
      type: STRING
    }
    attribute {
      name: "cubic_coeff_a"
      f: -0.75
      type: FLOAT
    }
    attribute {
      name: "mode"
      s: "linear"
      type: STRING
    }
    attribute {
      name: "nearest_mode"
      s: "floor"
      type: STRING
    }
  }
  node {
    input: "896"
    input: "812"
    output: "897"
    name: "Concat_87"
    op_type: "Concat"
    attribute {
      name: "axis"
      i: 1
      type: INT
    }
  }
  node {
    input: "897"
    input: "2000"
    input: "2001"
    output: "1999"
    name: "Conv_88"
    op_type: "Conv"
    attribute {
      name: "dilations"
      ints: 1
      ints: 1
      type: INTS
    }
    attribute {
      name: "group"
      i: 1
      type: INT
    }
    attribute {
      name: "kernel_shape"
      ints: 3
      ints: 3
      type: INTS
    }
    attribute {
      name: "pads"
      ints: 1
      ints: 1
      ints: 1
      ints: 1
      type: INTS
    }
    attribute {
      name: "strides"
      ints: 1
      ints: 1
      type: INTS
    }
  }
  node {
    input: "1999"
    output: "900"
    name: "Relu_89"
    op_type: "Relu"
  }
  node {
    input: "808"
    output: "901"
    name: "Shape_90"
    op_type: "Shape"
  }
  node {
    output: "902"
    name: "Constant_91"
    op_type: "Constant"
    attribute {
      name: "value"
      t {
        data_type: 7
      }
      type: TENSOR
    }
  }
  node {
    input: "901"
    input: "902"
    output: "903"
    name: "Gather_92"
    op_type: "Gather"
    attribute {
      name: "axis"
      i: 0
      type: INT
    }
  }
  node {
    input: "808"
    output: "904"
    name: "Shape_93"
    op_type: "Shape"
  }
  node {
    output: "905"
    name: "Constant_94"
    op_type: "Constant"
    attribute {
      name: "value"
      t {
        data_type: 7
      }
      type: TENSOR
    }
  }
  node {
    input: "904"
    input: "905"
    output: "906"
    name: "Gather_95"
    op_type: "Gather"
    attribute {
      name: "axis"
      i: 0
      type: INT
    }
  }
  node {
    input: "903"
    output: "907"
    name: "Unsqueeze_96"
    op_type: "Unsqueeze"
    attribute {
      name: "axes"
      ints: 0
      type: INTS
    }
  }
  node {
    input: "906"
    output: "908"
    name: "Unsqueeze_97"
    op_type: "Unsqueeze"
    attribute {
      name: "axes"
      ints: 0
      type: INTS
    }
  }
  node {
    input: "907"
    input: "908"
    output: "909"
    name: "Concat_98"
    op_type: "Concat"
    attribute {
      name: "axis"
      i: 0
      type: INT
    }
  }
  node {
    input: "900"
    output: "910"
    name: "Shape_99"
    op_type: "Shape"
  }
  node {
    output: "911"
    name: "Constant_100"
    op_type: "Constant"
    attribute {
      name: "value"
      t {
        dims: 1
        data_type: 7
      }
      type: TENSOR
    }
  }
  node {
    output: "912"
    name: "Constant_101"
    op_type: "Constant"
    attribute {
      name: "value"
      t {
        dims: 1
        data_type: 7
      }
      type: TENSOR
    }
  }
  node {
    output: "913"
    name: "Constant_102"
    op_type: "Constant"
    attribute {
      name: "value"
      t {
        dims: 1
        data_type: 7
      }
      type: TENSOR
    }
  }
  node {
    input: "910"
    input: "912"
    input: "913"
    input: "911"
    output: "914"
    name: "Slice_103"
    op_type: "Slice"
  }
  node {
    input: "909"
    output: "915"
    name: "Cast_104"
    op_type: "Cast"
    attribute {
      name: "to"
      i: 7
      type: INT
    }
  }
  node {
    input: "914"
    input: "915"
    output: "916"
    name: "Concat_105"
    op_type: "Concat"
    attribute {
      name: "axis"
      i: 0
      type: INT
    }
  }
  node {
    output: "917"
    name: "Constant_106"
    op_type: "Constant"
    attribute {
      name: "value"
      t {
        dims: 0
        data_type: 1
      }
      type: TENSOR
    }
  }
  node {
    output: "918"
    name: "Constant_107"
    op_type: "Constant"
    attribute {
      name: "value"
      t {
        dims: 0
        data_type: 1
      }
      type: TENSOR
    }
  }
  node {
    input: "900"
    input: "917"
    input: "918"
    input: "916"
    output: "919"
    name: "Resize_108"
    op_type: "Resize"
    attribute {
      name: "coordinate_transformation_mode"
      s: "pytorch_half_pixel"
      type: STRING
    }
    attribute {
      name: "cubic_coeff_a"
      f: -0.75
      type: FLOAT
    }
    attribute {
      name: "mode"
      s: "linear"
      type: STRING
    }
    attribute {
      name: "nearest_mode"
      s: "floor"
      type: STRING
    }
  }
  node {
    input: "919"
    input: "808"
    output: "920"
    name: "Concat_109"
    op_type: "Concat"
    attribute {
      name: "axis"
      i: 1
      type: INT
    }
  }
  node {
    input: "920"
    input: "2003"
    input: "2004"
    output: "2002"
    name: "Conv_110"
    op_type: "Conv"
    attribute {
      name: "dilations"
      ints: 1
      ints: 1
      type: INTS
    }
    attribute {
      name: "group"
      i: 1
      type: INT
    }
    attribute {
      name: "kernel_shape"
      ints: 3
      ints: 3
      type: INTS
    }
    attribute {
      name: "pads"
      ints: 1
      ints: 1
      ints: 1
      ints: 1
      type: INTS
    }
    attribute {
      name: "strides"
      ints: 1
      ints: 1
      type: INTS
    }
  }
  node {
    input: "2002"
    output: "923"
    name: "Relu_111"
    op_type: "Relu"
  }
  node {
    input: "804"
    output: "924"
    name: "Shape_112"
    op_type: "Shape"
  }
  node {
    output: "925"
    name: "Constant_113"
    op_type: "Constant"
    attribute {
      name: "value"
      t {
        data_type: 7
      }
      type: TENSOR
    }
  }
  node {
    input: "924"
    input: "925"
    output: "926"
    name: "Gather_114"
    op_type: "Gather"
    attribute {
      name: "axis"
      i: 0
      type: INT
    }
  }
  node {
    input: "804"
    output: "927"
    name: "Shape_115"
    op_type: "Shape"
  }
  node {
    output: "928"
    name: "Constant_116"
    op_type: "Constant"
    attribute {
      name: "value"
      t {
        data_type: 7
      }
      type: TENSOR
    }
  }
  node {
    input: "927"
    input: "928"
    output: "929"
    name: "Gather_117"
    op_type: "Gather"
    attribute {
      name: "axis"
      i: 0
      type: INT
    }
  }
  node {
    input: "926"
    output: "930"
    name: "Unsqueeze_118"
    op_type: "Unsqueeze"
    attribute {
      name: "axes"
      ints: 0
      type: INTS
    }
  }
  node {
    input: "929"
    output: "931"
    name: "Unsqueeze_119"
    op_type: "Unsqueeze"
    attribute {
      name: "axes"
      ints: 0
      type: INTS
    }
  }
  node {
    input: "930"
    input: "931"
    output: "932"
    name: "Concat_120"
    op_type: "Concat"
    attribute {
      name: "axis"
      i: 0
      type: INT
    }
  }
  node {
    input: "923"
    output: "933"
    name: "Shape_121"
    op_type: "Shape"
  }
  node {
    output: "934"
    name: "Constant_122"
    op_type: "Constant"
    attribute {
      name: "value"
      t {
        dims: 1
        data_type: 7
      }
      type: TENSOR
    }
  }
  node {
    output: "935"
    name: "Constant_123"
    op_type: "Constant"
    attribute {
      name: "value"
      t {
        dims: 1
        data_type: 7
      }
      type: TENSOR
    }
  }
  node {
    output: "936"
    name: "Constant_124"
    op_type: "Constant"
    attribute {
      name: "value"
      t {
        dims: 1
        data_type: 7
      }
      type: TENSOR
    }
  }
  node {
    input: "933"
    input: "935"
    input: "936"
    input: "934"
    output: "937"
    name: "Slice_125"
    op_type: "Slice"
  }
  node {
    input: "932"
    output: "938"
    name: "Cast_126"
    op_type: "Cast"
    attribute {
      name: "to"
      i: 7
      type: INT
    }
  }
  node {
    input: "937"
    input: "938"
    output: "939"
    name: "Concat_127"
    op_type: "Concat"
    attribute {
      name: "axis"
      i: 0
      type: INT
    }
  }
  node {
    output: "940"
    name: "Constant_128"
    op_type: "Constant"
    attribute {
      name: "value"
      t {
        dims: 0
        data_type: 1
      }
      type: TENSOR
    }
  }
  node {
    output: "941"
    name: "Constant_129"
    op_type: "Constant"
    attribute {
      name: "value"
      t {
        dims: 0
        data_type: 1
      }
      type: TENSOR
    }
  }
  node {
    input: "923"
    input: "940"
    input: "941"
    input: "939"
    output: "942"
    name: "Resize_130"
    op_type: "Resize"
    attribute {
      name: "coordinate_transformation_mode"
      s: "pytorch_half_pixel"
      type: STRING
    }
    attribute {
      name: "cubic_coeff_a"
      f: -0.75
      type: FLOAT
    }
    attribute {
      name: "mode"
      s: "linear"
      type: STRING
    }
    attribute {
      name: "nearest_mode"
      s: "floor"
      type: STRING
    }
  }
  node {
    input: "942"
    input: "804"
    output: "943"
    name: "Concat_131"
    op_type: "Concat"
    attribute {
      name: "axis"
      i: 1
      type: INT
    }
  }
  node {
    input: "943"
    input: "2006"
    input: "2007"
    output: "2005"
    name: "Conv_132"
    op_type: "Conv"
    attribute {
      name: "dilations"
      ints: 1
      ints: 1
      type: INTS
    }
    attribute {
      name: "group"
      i: 1
      type: INT
    }
    attribute {
      name: "kernel_shape"
      ints: 3
      ints: 3
      type: INTS
    }
    attribute {
      name: "pads"
      ints: 1
      ints: 1
      ints: 1
      ints: 1
      type: INTS
    }
    attribute {
      name: "strides"
      ints: 1
      ints: 1
      type: INTS
    }
  }
  node {
    input: "2005"
    output: "946"
    name: "Relu_133"
    op_type: "Relu"
  }
  node {
    input: "946"
    input: "801"
    output: "947"
    name: "Add_134"
    op_type: "Add"
  }
  node {
    input: "947"
    output: "948"
    name: "MaxPool_135"
    op_type: "MaxPool"
    attribute {
      name: "ceil_mode"
      i: 1
      type: INT
    }
    attribute {
      name: "kernel_shape"
      ints: 2
      ints: 2
      type: INTS
    }
    attribute {
      name: "pads"
      ints: 0
      ints: 0
      ints: 0
      ints: 0
      type: INTS
    }
    attribute {
      name: "strides"
      ints: 2
      ints: 2
      type: INTS
    }
  }
  node {
    input: "948"
    input: "2009"
    input: "2010"
    output: "2008"
    name: "Conv_136"
    op_type: "Conv"
    attribute {
      name: "dilations"
      ints: 1
      ints: 1
      type: INTS
    }
    attribute {
      name: "group"
      i: 1
      type: INT
    }
    attribute {
      name: "kernel_shape"
      ints: 3
      ints: 3
      type: INTS
    }
    attribute {
      name: "pads"
      ints: 1
      ints: 1
      ints: 1
      ints: 1
      type: INTS
    }
    attribute {
      name: "strides"
      ints: 1
      ints: 1
      type: INTS
    }
  }
  node {
    input: "2008"
    output: "951"
    name: "Relu_137"
    op_type: "Relu"
  }
  node {
    input: "951"
    input: "2012"
    input: "2013"
    output: "2011"
    name: "Conv_138"
    op_type: "Conv"
    attribute {
      name: "dilations"
      ints: 1
      ints: 1
      type: INTS
    }
    attribute {
      name: "group"
      i: 1
      type: INT
    }
    attribute {
      name: "kernel_shape"
      ints: 3
      ints: 3
      type: INTS
    }
    attribute {
      name: "pads"
      ints: 1
      ints: 1
      ints: 1
      ints: 1
      type: INTS
    }
    attribute {
      name: "strides"
      ints: 1
      ints: 1
      type: INTS
    }
  }
  node {
    input: "2011"
    output: "954"
    name: "Relu_139"
    op_type: "Relu"
  }
  node {
    input: "954"
    output: "955"
    name: "MaxPool_140"
    op_type: "MaxPool"
    attribute {
      name: "ceil_mode"
      i: 1
      type: INT
    }
    attribute {
      name: "kernel_shape"
      ints: 2
      ints: 2
      type: INTS
    }
    attribute {
      name: "pads"
      ints: 0
      ints: 0
      ints: 0
      ints: 0
      type: INTS
    }
    attribute {
      name: "strides"
      ints: 2
      ints: 2
      type: INTS
    }
  }
  node {
    input: "955"
    input: "2015"
    input: "2016"
    output: "2014"
    name: "Conv_141"
    op_type: "Conv"
    attribute {
      name: "dilations"
      ints: 1
      ints: 1
      type: INTS
    }
    attribute {
      name: "group"
      i: 1
      type: INT
    }
    attribute {
      name: "kernel_shape"
      ints: 3
      ints: 3
      type: INTS
    }
    attribute {
      name: "pads"
      ints: 1
      ints: 1
      ints: 1
      ints: 1
      type: INTS
    }
    attribute {
      name: "strides"
      ints: 1
      ints: 1
      type: INTS
    }
  }
  node {
    input: "2014"
    output: "958"
    name: "Relu_142"
    op_type: "Relu"
  }
  node {
    input: "958"
    output: "959"
    name: "MaxPool_143"
    op_type: "MaxPool"
    attribute {
      name: "ceil_mode"
      i: 1
      type: INT
    }
    attribute {
      name: "kernel_shape"
      ints: 2
      ints: 2
      type: INTS
    }
    attribute {
      name: "pads"
      ints: 0
      ints: 0
      ints: 0
      ints: 0
      type: INTS
    }
    attribute {
      name: "strides"
      ints: 2
      ints: 2
      type: INTS
    }
  }
  node {
    input: "959"
    input: "2018"
    input: "2019"
    output: "2017"
    name: "Conv_144"
    op_type: "Conv"
    attribute {
      name: "dilations"
      ints: 1
      ints: 1
      type: INTS
    }
    attribute {
      name: "group"
      i: 1
      type: INT
    }
    attribute {
      name: "kernel_shape"
      ints: 3
      ints: 3
      type: INTS
    }
    attribute {
      name: "pads"
      ints: 1
      ints: 1
      ints: 1
      ints: 1
      type: INTS
    }
    attribute {
      name: "strides"
      ints: 1
      ints: 1
      type: INTS
    }
  }
  node {
    input: "2017"
    output: "962"
    name: "Relu_145"
    op_type: "Relu"
  }
  node {
    input: "962"
    output: "963"
    name: "MaxPool_146"
    op_type: "MaxPool"
    attribute {
      name: "ceil_mode"
      i: 1
      type: INT
    }
    attribute {
      name: "kernel_shape"
      ints: 2
      ints: 2
      type: INTS
    }
    attribute {
      name: "pads"
      ints: 0
      ints: 0
      ints: 0
      ints: 0
      type: INTS
    }
    attribute {
      name: "strides"
      ints: 2
      ints: 2
      type: INTS
    }
  }
  node {
    input: "963"
    input: "2021"
    input: "2022"
    output: "2020"
    name: "Conv_147"
    op_type: "Conv"
    attribute {
      name: "dilations"
      ints: 1
      ints: 1
      type: INTS
    }
    attribute {
      name: "group"
      i: 1
      type: INT
    }
    attribute {
      name: "kernel_shape"
      ints: 3
      ints: 3
      type: INTS
    }
    attribute {
      name: "pads"
      ints: 1
      ints: 1
      ints: 1
      ints: 1
      type: INTS
    }
    attribute {
      name: "strides"
      ints: 1
      ints: 1
      type: INTS
    }
  }
  node {
    input: "2020"
    output: "966"
    name: "Relu_148"
    op_type: "Relu"
  }
  node {
    input: "966"
    output: "967"
    name: "MaxPool_149"
    op_type: "MaxPool"
    attribute {
      name: "ceil_mode"
      i: 1
      type: INT
    }
    attribute {
      name: "kernel_shape"
      ints: 2
      ints: 2
      type: INTS
    }
    attribute {
      name: "pads"
      ints: 0
      ints: 0
      ints: 0
      ints: 0
      type: INTS
    }
    attribute {
      name: "strides"
      ints: 2
      ints: 2
      type: INTS
    }
  }
  node {
    input: "967"
    input: "2024"
    input: "2025"
    output: "2023"
    name: "Conv_150"
    op_type: "Conv"
    attribute {
      name: "dilations"
      ints: 1
      ints: 1
      type: INTS
    }
    attribute {
      name: "group"
      i: 1
      type: INT
    }
    attribute {
      name: "kernel_shape"
      ints: 3
      ints: 3
      type: INTS
    }
    attribute {
      name: "pads"
      ints: 1
      ints: 1
      ints: 1
      ints: 1
      type: INTS
    }
    attribute {
      name: "strides"
      ints: 1
      ints: 1
      type: INTS
    }
  }
  node {
    input: "2023"
    output: "970"
    name: "Relu_151"
    op_type: "Relu"
  }
  node {
    input: "970"
    input: "2027"
    input: "2028"
    output: "2026"
    name: "Conv_152"
    op_type: "Conv"
    attribute {
      name: "dilations"
      ints: 2
      ints: 2
      type: INTS
    }
    attribute {
      name: "group"
      i: 1
      type: INT
    }
    attribute {
      name: "kernel_shape"
      ints: 3
      ints: 3
      type: INTS
    }
    attribute {
      name: "pads"
      ints: 2
      ints: 2
      ints: 2
      ints: 2
      type: INTS
    }
    attribute {
      name: "strides"
      ints: 1
      ints: 1
      type: INTS
    }
  }
  node {
    input: "2026"
    output: "973"
    name: "Relu_153"
    op_type: "Relu"
  }
  node {
    input: "973"
    input: "970"
    output: "974"
    name: "Concat_154"
    op_type: "Concat"
    attribute {
      name: "axis"
      i: 1
      type: INT
    }
  }
  node {
    input: "974"
    input: "2030"
    input: "2031"
    output: "2029"
    name: "Conv_155"
    op_type: "Conv"
    attribute {
      name: "dilations"
      ints: 1
      ints: 1
      type: INTS
    }
    attribute {
      name: "group"
      i: 1
      type: INT
    }
    attribute {
      name: "kernel_shape"
      ints: 3
      ints: 3
      type: INTS
    }
    attribute {
      name: "pads"
      ints: 1
      ints: 1
      ints: 1
      ints: 1
      type: INTS
    }
    attribute {
      name: "strides"
      ints: 1
      ints: 1
      type: INTS
    }
  }
  node {
    input: "2029"
    output: "977"
    name: "Relu_156"
    op_type: "Relu"
  }
  node {
    input: "966"
    output: "978"
    name: "Shape_157"
    op_type: "Shape"
  }
  node {
    output: "979"
    name: "Constant_158"
    op_type: "Constant"
    attribute {
      name: "value"
      t {
        data_type: 7
      }
      type: TENSOR
    }
  }
  node {
    input: "978"
    input: "979"
    output: "980"
    name: "Gather_159"
    op_type: "Gather"
    attribute {
      name: "axis"
      i: 0
      type: INT
    }
  }
  node {
    input: "966"
    output: "981"
    name: "Shape_160"
    op_type: "Shape"
  }
  node {
    output: "982"
    name: "Constant_161"
    op_type: "Constant"
    attribute {
      name: "value"
      t {
        data_type: 7
      }
      type: TENSOR
    }
  }
  node {
    input: "981"
    input: "982"
    output: "983"
    name: "Gather_162"
    op_type: "Gather"
    attribute {
      name: "axis"
      i: 0
      type: INT
    }
  }
  node {
    input: "980"
    output: "984"
    name: "Unsqueeze_163"
    op_type: "Unsqueeze"
    attribute {
      name: "axes"
      ints: 0
      type: INTS
    }
  }
  node {
    input: "983"
    output: "985"
    name: "Unsqueeze_164"
    op_type: "Unsqueeze"
    attribute {
      name: "axes"
      ints: 0
      type: INTS
    }
  }
  node {
    input: "984"
    input: "985"
    output: "986"
    name: "Concat_165"
    op_type: "Concat"
    attribute {
      name: "axis"
      i: 0
      type: INT
    }
  }
  node {
    input: "977"
    output: "987"
    name: "Shape_166"
    op_type: "Shape"
  }
  node {
    output: "988"
    name: "Constant_167"
    op_type: "Constant"
    attribute {
      name: "value"
      t {
        dims: 1
        data_type: 7
      }
      type: TENSOR
    }
  }
  node {
    output: "989"
    name: "Constant_168"
    op_type: "Constant"
    attribute {
      name: "value"
      t {
        dims: 1
        data_type: 7
      }
      type: TENSOR
    }
  }
  node {
    output: "990"
    name: "Constant_169"
    op_type: "Constant"
    attribute {
      name: "value"
      t {
        dims: 1
        data_type: 7
      }
      type: TENSOR
    }
  }
  node {
    input: "987"
    input: "989"
    input: "990"
    input: "988"
    output: "991"
    name: "Slice_170"
    op_type: "Slice"
  }
  node {
    input: "986"
    output: "992"
    name: "Cast_171"
    op_type: "Cast"
    attribute {
      name: "to"
      i: 7
      type: INT
    }
  }
  node {
    input: "991"
    input: "992"
    output: "993"
    name: "Concat_172"
    op_type: "Concat"
    attribute {
      name: "axis"
      i: 0
      type: INT
    }
  }
  node {
    output: "994"
    name: "Constant_173"
    op_type: "Constant"
    attribute {
      name: "value"
      t {
        dims: 0
        data_type: 1
      }
      type: TENSOR
    }
  }
  node {
    output: "995"
    name: "Constant_174"
    op_type: "Constant"
    attribute {
      name: "value"
      t {
        dims: 0
        data_type: 1
      }
      type: TENSOR
    }
  }
  node {
    input: "977"
    input: "994"
    input: "995"
    input: "993"
    output: "996"
    name: "Resize_175"
    op_type: "Resize"
    attribute {
      name: "coordinate_transformation_mode"
      s: "pytorch_half_pixel"
      type: STRING
    }
    attribute {
      name: "cubic_coeff_a"
      f: -0.75
      type: FLOAT
    }
    attribute {
      name: "mode"
      s: "linear"
      type: STRING
    }
    attribute {
      name: "nearest_mode"
      s: "floor"
      type: STRING
    }
  }
  node {
    input: "996"
    input: "966"
    output: "997"
    name: "Concat_176"
    op_type: "Concat"
    attribute {
      name: "axis"
      i: 1
      type: INT
    }
  }
  node {
    input: "997"
    input: "2033"
    input: "2034"
    output: "2032"
    name: "Conv_177"
    op_type: "Conv"
    attribute {
      name: "dilations"
      ints: 1
      ints: 1
      type: INTS
    }
    attribute {
      name: "group"
      i: 1
      type: INT
    }
    attribute {
      name: "kernel_shape"
      ints: 3
      ints: 3
      type: INTS
    }
    attribute {
      name: "pads"
      ints: 1
      ints: 1
      ints: 1
      ints: 1
      type: INTS
    }
    attribute {
      name: "strides"
      ints: 1
      ints: 1
      type: INTS
    }
  }
  node {
    input: "2032"
    output: "1000"
    name: "Relu_178"
    op_type: "Relu"
  }
  node {
    input: "962"
    output: "1001"
    name: "Shape_179"
    op_type: "Shape"
  }
  node {
    output: "1002"
    name: "Constant_180"
    op_type: "Constant"
    attribute {
      name: "value"
      t {
        data_type: 7
      }
      type: TENSOR
    }
  }
  node {
    input: "1001"
    input: "1002"
    output: "1003"
    name: "Gather_181"
    op_type: "Gather"
    attribute {
      name: "axis"
      i: 0
      type: INT
    }
  }
  node {
    input: "962"
    output: "1004"
    name: "Shape_182"
    op_type: "Shape"
  }
  node {
    output: "1005"
    name: "Constant_183"
    op_type: "Constant"
    attribute {
      name: "value"
      t {
        data_type: 7
      }
      type: TENSOR
    }
  }
  node {
    input: "1004"
    input: "1005"
    output: "1006"
    name: "Gather_184"
    op_type: "Gather"
    attribute {
      name: "axis"
      i: 0
      type: INT
    }
  }
  node {
    input: "1003"
    output: "1007"
    name: "Unsqueeze_185"
    op_type: "Unsqueeze"
    attribute {
      name: "axes"
      ints: 0
      type: INTS
    }
  }
  node {
    input: "1006"
    output: "1008"
    name: "Unsqueeze_186"
    op_type: "Unsqueeze"
    attribute {
      name: "axes"
      ints: 0
      type: INTS
    }
  }
  node {
    input: "1007"
    input: "1008"
    output: "1009"
    name: "Concat_187"
    op_type: "Concat"
    attribute {
      name: "axis"
      i: 0
      type: INT
    }
  }
  node {
    input: "1000"
    output: "1010"
    name: "Shape_188"
    op_type: "Shape"
  }
  node {
    output: "1011"
    name: "Constant_189"
    op_type: "Constant"
    attribute {
      name: "value"
      t {
        dims: 1
        data_type: 7
      }
      type: TENSOR
    }
  }
  node {
    output: "1012"
    name: "Constant_190"
    op_type: "Constant"
    attribute {
      name: "value"
      t {
        dims: 1
        data_type: 7
      }
      type: TENSOR
    }
  }
  node {
    output: "1013"
    name: "Constant_191"
    op_type: "Constant"
    attribute {
      name: "value"
      t {
        dims: 1
        data_type: 7
      }
      type: TENSOR
    }
  }
  node {
    input: "1010"
    input: "1012"
    input: "1013"
    input: "1011"
    output: "1014"
    name: "Slice_192"
    op_type: "Slice"
  }
  node {
    input: "1009"
    output: "1015"
    name: "Cast_193"
    op_type: "Cast"
    attribute {
      name: "to"
      i: 7
      type: INT
    }
  }
  node {
    input: "1014"
    input: "1015"
    output: "1016"
    name: "Concat_194"
    op_type: "Concat"
    attribute {
      name: "axis"
      i: 0
      type: INT
    }
  }
  node {
    output: "1017"
    name: "Constant_195"
    op_type: "Constant"
    attribute {
      name: "value"
      t {
        dims: 0
        data_type: 1
      }
      type: TENSOR
    }
  }
  node {
    output: "1018"
    name: "Constant_196"
    op_type: "Constant"
    attribute {
      name: "value"
      t {
        dims: 0
        data_type: 1
      }
      type: TENSOR
    }
  }
  node {
    input: "1000"
    input: "1017"
    input: "1018"
    input: "1016"
    output: "1019"
    name: "Resize_197"
    op_type: "Resize"
    attribute {
      name: "coordinate_transformation_mode"
      s: "pytorch_half_pixel"
      type: STRING
    }
    attribute {
      name: "cubic_coeff_a"
      f: -0.75
      type: FLOAT
    }
    attribute {
      name: "mode"
      s: "linear"
      type: STRING
    }
    attribute {
      name: "nearest_mode"
      s: "floor"
      type: STRING
    }
  }
  node {
    input: "1019"
    input: "962"
    output: "1020"
    name: "Concat_198"
    op_type: "Concat"
    attribute {
      name: "axis"
      i: 1
      type: INT
    }
  }
  node {
    input: "1020"
    input: "2036"
    input: "2037"
    output: "2035"
    name: "Conv_199"
    op_type: "Conv"
    attribute {
      name: "dilations"
      ints: 1
      ints: 1
      type: INTS
    }
    attribute {
      name: "group"
      i: 1
      type: INT
    }
    attribute {
      name: "kernel_shape"
      ints: 3
      ints: 3
      type: INTS
    }
    attribute {
      name: "pads"
      ints: 1
      ints: 1
      ints: 1
      ints: 1
      type: INTS
    }
    attribute {
      name: "strides"
      ints: 1
      ints: 1
      type: INTS
    }
  }
  node {
    input: "2035"
    output: "1023"
    name: "Relu_200"
    op_type: "Relu"
  }
  node {
    input: "958"
    output: "1024"
    name: "Shape_201"
    op_type: "Shape"
  }
  node {
    output: "1025"
    name: "Constant_202"
    op_type: "Constant"
    attribute {
      name: "value"
      t {
        data_type: 7
      }
      type: TENSOR
    }
  }
  node {
    input: "1024"
    input: "1025"
    output: "1026"
    name: "Gather_203"
    op_type: "Gather"
    attribute {
      name: "axis"
      i: 0
      type: INT
    }
  }
  node {
    input: "958"
    output: "1027"
    name: "Shape_204"
    op_type: "Shape"
  }
  node {
    output: "1028"
    name: "Constant_205"
    op_type: "Constant"
    attribute {
      name: "value"
      t {
        data_type: 7
      }
      type: TENSOR
    }
  }
  node {
    input: "1027"
    input: "1028"
    output: "1029"
    name: "Gather_206"
    op_type: "Gather"
    attribute {
      name: "axis"
      i: 0
      type: INT
    }
  }
  node {
    input: "1026"
    output: "1030"
    name: "Unsqueeze_207"
    op_type: "Unsqueeze"
    attribute {
      name: "axes"
      ints: 0
      type: INTS
    }
  }
  node {
    input: "1029"
    output: "1031"
    name: "Unsqueeze_208"
    op_type: "Unsqueeze"
    attribute {
      name: "axes"
      ints: 0
      type: INTS
    }
  }
  node {
    input: "1030"
    input: "1031"
    output: "1032"
    name: "Concat_209"
    op_type: "Concat"
    attribute {
      name: "axis"
      i: 0
      type: INT
    }
  }
  node {
    input: "1023"
    output: "1033"
    name: "Shape_210"
    op_type: "Shape"
  }
  node {
    output: "1034"
    name: "Constant_211"
    op_type: "Constant"
    attribute {
      name: "value"
      t {
        dims: 1
        data_type: 7
      }
      type: TENSOR
    }
  }
  node {
    output: "1035"
    name: "Constant_212"
    op_type: "Constant"
    attribute {
      name: "value"
      t {
        dims: 1
        data_type: 7
      }
      type: TENSOR
    }
  }
  node {
    output: "1036"
    name: "Constant_213"
    op_type: "Constant"
    attribute {
      name: "value"
      t {
        dims: 1
        data_type: 7
      }
      type: TENSOR
    }
  }
  node {
    input: "1033"
    input: "1035"
    input: "1036"
    input: "1034"
    output: "1037"
    name: "Slice_214"
    op_type: "Slice"
  }
  node {
    input: "1032"
    output: "1038"
    name: "Cast_215"
    op_type: "Cast"
    attribute {
      name: "to"
      i: 7
      type: INT
    }
  }
  node {
    input: "1037"
    input: "1038"
    output: "1039"
    name: "Concat_216"
    op_type: "Concat"
    attribute {
      name: "axis"
      i: 0
      type: INT
    }
  }
  node {
    output: "1040"
    name: "Constant_217"
    op_type: "Constant"
    attribute {
      name: "value"
      t {
        dims: 0
        data_type: 1
      }
      type: TENSOR
    }
  }
  node {
    output: "1041"
    name: "Constant_218"
    op_type: "Constant"
    attribute {
      name: "value"
      t {
        dims: 0
        data_type: 1
      }
      type: TENSOR
    }
  }
  node {
    input: "1023"
    input: "1040"
    input: "1041"
    input: "1039"
    output: "1042"
    name: "Resize_219"
    op_type: "Resize"
    attribute {
      name: "coordinate_transformation_mode"
      s: "pytorch_half_pixel"
      type: STRING
    }
    attribute {
      name: "cubic_coeff_a"
      f: -0.75
      type: FLOAT
    }
    attribute {
      name: "mode"
      s: "linear"
      type: STRING
    }
    attribute {
      name: "nearest_mode"
      s: "floor"
      type: STRING
    }
  }
  node {
    input: "1042"
    input: "958"
    output: "1043"
    name: "Concat_220"
    op_type: "Concat"
    attribute {
      name: "axis"
      i: 1
      type: INT
    }
  }
  node {
    input: "1043"
    input: "2039"
    input: "2040"
    output: "2038"
    name: "Conv_221"
    op_type: "Conv"
    attribute {
      name: "dilations"
      ints: 1
      ints: 1
      type: INTS
    }
    attribute {
      name: "group"
      i: 1
      type: INT
    }
    attribute {
      name: "kernel_shape"
      ints: 3
      ints: 3
      type: INTS
    }
    attribute {
      name: "pads"
      ints: 1
      ints: 1
      ints: 1
      ints: 1
      type: INTS
    }
    attribute {
      name: "strides"
      ints: 1
      ints: 1
      type: INTS
    }
  }
  node {
    input: "2038"
    output: "1046"
    name: "Relu_222"
    op_type: "Relu"
  }
  node {
    input: "954"
    output: "1047"
    name: "Shape_223"
    op_type: "Shape"
  }
  node {
    output: "1048"
    name: "Constant_224"
    op_type: "Constant"
    attribute {
      name: "value"
      t {
        data_type: 7
      }
      type: TENSOR
    }
  }
  node {
    input: "1047"
    input: "1048"
    output: "1049"
    name: "Gather_225"
    op_type: "Gather"
    attribute {
      name: "axis"
      i: 0
      type: INT
    }
  }
  node {
    input: "954"
    output: "1050"
    name: "Shape_226"
    op_type: "Shape"
  }
  node {
    output: "1051"
    name: "Constant_227"
    op_type: "Constant"
    attribute {
      name: "value"
      t {
        data_type: 7
      }
      type: TENSOR
    }
  }
  node {
    input: "1050"
    input: "1051"
    output: "1052"
    name: "Gather_228"
    op_type: "Gather"
    attribute {
      name: "axis"
      i: 0
      type: INT
    }
  }
  node {
    input: "1049"
    output: "1053"
    name: "Unsqueeze_229"
    op_type: "Unsqueeze"
    attribute {
      name: "axes"
      ints: 0
      type: INTS
    }
  }
  node {
    input: "1052"
    output: "1054"
    name: "Unsqueeze_230"
    op_type: "Unsqueeze"
    attribute {
      name: "axes"
      ints: 0
      type: INTS
    }
  }
  node {
    input: "1053"
    input: "1054"
    output: "1055"
    name: "Concat_231"
    op_type: "Concat"
    attribute {
      name: "axis"
      i: 0
      type: INT
    }
  }
  node {
    input: "1046"
    output: "1056"
    name: "Shape_232"
    op_type: "Shape"
  }
  node {
    output: "1057"
    name: "Constant_233"
    op_type: "Constant"
    attribute {
      name: "value"
      t {
        dims: 1
        data_type: 7
      }
      type: TENSOR
    }
  }
  node {
    output: "1058"
    name: "Constant_234"
    op_type: "Constant"
    attribute {
      name: "value"
      t {
        dims: 1
        data_type: 7
      }
      type: TENSOR
    }
  }
  node {
    output: "1059"
    name: "Constant_235"
    op_type: "Constant"
    attribute {
      name: "value"
      t {
        dims: 1
        data_type: 7
      }
      type: TENSOR
    }
  }
  node {
    input: "1056"
    input: "1058"
    input: "1059"
    input: "1057"
    output: "1060"
    name: "Slice_236"
    op_type: "Slice"
  }
  node {
    input: "1055"
    output: "1061"
    name: "Cast_237"
    op_type: "Cast"
    attribute {
      name: "to"
      i: 7
      type: INT
    }
  }
  node {
    input: "1060"
    input: "1061"
    output: "1062"
    name: "Concat_238"
    op_type: "Concat"
    attribute {
      name: "axis"
      i: 0
      type: INT
    }
  }
  node {
    output: "1063"
    name: "Constant_239"
    op_type: "Constant"
    attribute {
      name: "value"
      t {
        dims: 0
        data_type: 1
      }
      type: TENSOR
    }
  }
  node {
    output: "1064"
    name: "Constant_240"
    op_type: "Constant"
    attribute {
      name: "value"
      t {
        dims: 0
        data_type: 1
      }
      type: TENSOR
    }
  }
  node {
    input: "1046"
    input: "1063"
    input: "1064"
    input: "1062"
    output: "1065"
    name: "Resize_241"
    op_type: "Resize"
    attribute {
      name: "coordinate_transformation_mode"
      s: "pytorch_half_pixel"
      type: STRING
    }
    attribute {
      name: "cubic_coeff_a"
      f: -0.75
      type: FLOAT
    }
    attribute {
      name: "mode"
      s: "linear"
      type: STRING
    }
    attribute {
      name: "nearest_mode"
      s: "floor"
      type: STRING
    }
  }
  node {
    input: "1065"
    input: "954"
    output: "1066"
    name: "Concat_242"
    op_type: "Concat"
    attribute {
      name: "axis"
      i: 1
      type: INT
    }
  }
  node {
    input: "1066"
    input: "2042"
    input: "2043"
    output: "2041"
    name: "Conv_243"
    op_type: "Conv"
    attribute {
      name: "dilations"
      ints: 1
      ints: 1
      type: INTS
    }
    attribute {
      name: "group"
      i: 1
      type: INT
    }
    attribute {
      name: "kernel_shape"
      ints: 3
      ints: 3
      type: INTS
    }
    attribute {
      name: "pads"
      ints: 1
      ints: 1
      ints: 1
      ints: 1
      type: INTS
    }
    attribute {
      name: "strides"
      ints: 1
      ints: 1
      type: INTS
    }
  }
  node {
    input: "2041"
    output: "1069"
    name: "Relu_244"
    op_type: "Relu"
  }
  node {
    input: "1069"
    input: "951"
    output: "1070"
    name: "Add_245"
    op_type: "Add"
  }
  node {
    input: "1070"
    output: "1071"
    name: "MaxPool_246"
    op_type: "MaxPool"
    attribute {
      name: "ceil_mode"
      i: 1
      type: INT
    }
    attribute {
      name: "kernel_shape"
      ints: 2
      ints: 2
      type: INTS
    }
    attribute {
      name: "pads"
      ints: 0
      ints: 0
      ints: 0
      ints: 0
      type: INTS
    }
    attribute {
      name: "strides"
      ints: 2
      ints: 2
      type: INTS
    }
  }
  node {
    input: "1071"
    input: "2045"
    input: "2046"
    output: "2044"
    name: "Conv_247"
    op_type: "Conv"
    attribute {
      name: "dilations"
      ints: 1
      ints: 1
      type: INTS
    }
    attribute {
      name: "group"
      i: 1
      type: INT
    }
    attribute {
      name: "kernel_shape"
      ints: 3
      ints: 3
      type: INTS
    }
    attribute {
      name: "pads"
      ints: 1
      ints: 1
      ints: 1
      ints: 1
      type: INTS
    }
    attribute {
      name: "strides"
      ints: 1
      ints: 1
      type: INTS
    }
  }
  node {
    input: "2044"
    output: "1074"
    name: "Relu_248"
    op_type: "Relu"
  }
  node {
    input: "1074"
    input: "2048"
    input: "2049"
    output: "2047"
    name: "Conv_249"
    op_type: "Conv"
    attribute {
      name: "dilations"
      ints: 1
      ints: 1
      type: INTS
    }
    attribute {
      name: "group"
      i: 1
      type: INT
    }
    attribute {
      name: "kernel_shape"
      ints: 3
      ints: 3
      type: INTS
    }
    attribute {
      name: "pads"
      ints: 1
      ints: 1
      ints: 1
      ints: 1
      type: INTS
    }
    attribute {
      name: "strides"
      ints: 1
      ints: 1
      type: INTS
    }
  }
  node {
    input: "2047"
    output: "1077"
    name: "Relu_250"
    op_type: "Relu"
  }
  node {
    input: "1077"
    output: "1078"
    name: "MaxPool_251"
    op_type: "MaxPool"
    attribute {
      name: "ceil_mode"
      i: 1
      type: INT
    }
    attribute {
      name: "kernel_shape"
      ints: 2
      ints: 2
      type: INTS
    }
    attribute {
      name: "pads"
      ints: 0
      ints: 0
      ints: 0
      ints: 0
      type: INTS
    }
    attribute {
      name: "strides"
      ints: 2
      ints: 2
      type: INTS
    }
  }
  node {
    input: "1078"
    input: "2051"
    input: "2052"
    output: "2050"
    name: "Conv_252"
    op_type: "Conv"
    attribute {
      name: "dilations"
      ints: 1
      ints: 1
      type: INTS
    }
    attribute {
      name: "group"
      i: 1
      type: INT
    }
    attribute {
      name: "kernel_shape"
      ints: 3
      ints: 3
      type: INTS
    }
    attribute {
      name: "pads"
      ints: 1
      ints: 1
      ints: 1
      ints: 1
      type: INTS
    }
    attribute {
      name: "strides"
      ints: 1
      ints: 1
      type: INTS
    }
  }
  node {
    input: "2050"
    output: "1081"
    name: "Relu_253"
    op_type: "Relu"
  }
  node {
    input: "1081"
    output: "1082"
    name: "MaxPool_254"
    op_type: "MaxPool"
    attribute {
      name: "ceil_mode"
      i: 1
      type: INT
    }
    attribute {
      name: "kernel_shape"
      ints: 2
      ints: 2
      type: INTS
    }
    attribute {
      name: "pads"
      ints: 0
      ints: 0
      ints: 0
      ints: 0
      type: INTS
    }
    attribute {
      name: "strides"
      ints: 2
      ints: 2
      type: INTS
    }
  }
  node {
    input: "1082"
    input: "2054"
    input: "2055"
    output: "2053"
    name: "Conv_255"
    op_type: "Conv"
    attribute {
      name: "dilations"
      ints: 1
      ints: 1
      type: INTS
    }
    attribute {
      name: "group"
      i: 1
      type: INT
    }
    attribute {
      name: "kernel_shape"
      ints: 3
      ints: 3
      type: INTS
    }
    attribute {
      name: "pads"
      ints: 1
      ints: 1
      ints: 1
      ints: 1
      type: INTS
    }
    attribute {
      name: "strides"
      ints: 1
      ints: 1
      type: INTS
    }
  }
  node {
    input: "2053"
    output: "1085"
    name: "Relu_256"
    op_type: "Relu"
  }
  node {
    input: "1085"
    output: "1086"
    name: "MaxPool_257"
    op_type: "MaxPool"
    attribute {
      name: "ceil_mode"
      i: 1
      type: INT
    }
    attribute {
      name: "kernel_shape"
      ints: 2
      ints: 2
      type: INTS
    }
    attribute {
      name: "pads"
      ints: 0
      ints: 0
      ints: 0
      ints: 0
      type: INTS
    }
    attribute {
      name: "strides"
      ints: 2
      ints: 2
      type: INTS
    }
  }
  node {
    input: "1086"
    input: "2057"
    input: "2058"
    output: "2056"
    name: "Conv_258"
    op_type: "Conv"
    attribute {
      name: "dilations"
      ints: 1
      ints: 1
      type: INTS
    }
    attribute {
      name: "group"
      i: 1
      type: INT
    }
    attribute {
      name: "kernel_shape"
      ints: 3
      ints: 3
      type: INTS
    }
    attribute {
      name: "pads"
      ints: 1
      ints: 1
      ints: 1
      ints: 1
      type: INTS
    }
    attribute {
      name: "strides"
      ints: 1
      ints: 1
      type: INTS
    }
  }
  node {
    input: "2056"
    output: "1089"
    name: "Relu_259"
    op_type: "Relu"
  }
  node {
    input: "1089"
    input: "2060"
    input: "2061"
    output: "2059"
    name: "Conv_260"
    op_type: "Conv"
    attribute {
      name: "dilations"
      ints: 2
      ints: 2
      type: INTS
    }
    attribute {
      name: "group"
      i: 1
      type: INT
    }
    attribute {
      name: "kernel_shape"
      ints: 3
      ints: 3
      type: INTS
    }
    attribute {
      name: "pads"
      ints: 2
      ints: 2
      ints: 2
      ints: 2
      type: INTS
    }
    attribute {
      name: "strides"
      ints: 1
      ints: 1
      type: INTS
    }
  }
  node {
    input: "2059"
    output: "1092"
    name: "Relu_261"
    op_type: "Relu"
  }
  node {
    input: "1092"
    input: "1089"
    output: "1093"
    name: "Concat_262"
    op_type: "Concat"
    attribute {
      name: "axis"
      i: 1
      type: INT
    }
  }
  node {
    input: "1093"
    input: "2063"
    input: "2064"
    output: "2062"
    name: "Conv_263"
    op_type: "Conv"
    attribute {
      name: "dilations"
      ints: 1
      ints: 1
      type: INTS
    }
    attribute {
      name: "group"
      i: 1
      type: INT
    }
    attribute {
      name: "kernel_shape"
      ints: 3
      ints: 3
      type: INTS
    }
    attribute {
      name: "pads"
      ints: 1
      ints: 1
      ints: 1
      ints: 1
      type: INTS
    }
    attribute {
      name: "strides"
      ints: 1
      ints: 1
      type: INTS
    }
  }
  node {
    input: "2062"
    output: "1096"
    name: "Relu_264"
    op_type: "Relu"
  }
  node {
    input: "1085"
    output: "1097"
    name: "Shape_265"
    op_type: "Shape"
  }
  node {
    output: "1098"
    name: "Constant_266"
    op_type: "Constant"
    attribute {
      name: "value"
      t {
        data_type: 7
      }
      type: TENSOR
    }
  }
  node {
    input: "1097"
    input: "1098"
    output: "1099"
    name: "Gather_267"
    op_type: "Gather"
    attribute {
      name: "axis"
      i: 0
      type: INT
    }
  }
  node {
    input: "1085"
    output: "1100"
    name: "Shape_268"
    op_type: "Shape"
  }
  node {
    output: "1101"
    name: "Constant_269"
    op_type: "Constant"
    attribute {
      name: "value"
      t {
        data_type: 7
      }
      type: TENSOR
    }
  }
  node {
    input: "1100"
    input: "1101"
    output: "1102"
    name: "Gather_270"
    op_type: "Gather"
    attribute {
      name: "axis"
      i: 0
      type: INT
    }
  }
  node {
    input: "1099"
    output: "1103"
    name: "Unsqueeze_271"
    op_type: "Unsqueeze"
    attribute {
      name: "axes"
      ints: 0
      type: INTS
    }
  }
  node {
    input: "1102"
    output: "1104"
    name: "Unsqueeze_272"
    op_type: "Unsqueeze"
    attribute {
      name: "axes"
      ints: 0
      type: INTS
    }
  }
  node {
    input: "1103"
    input: "1104"
    output: "1105"
    name: "Concat_273"
    op_type: "Concat"
    attribute {
      name: "axis"
      i: 0
      type: INT
    }
  }
  node {
    input: "1096"
    output: "1106"
    name: "Shape_274"
    op_type: "Shape"
  }
  node {
    output: "1107"
    name: "Constant_275"
    op_type: "Constant"
    attribute {
      name: "value"
      t {
        dims: 1
        data_type: 7
      }
      type: TENSOR
    }
  }
  node {
    output: "1108"
    name: "Constant_276"
    op_type: "Constant"
    attribute {
      name: "value"
      t {
        dims: 1
        data_type: 7
      }
      type: TENSOR
    }
  }
  node {
    output: "1109"
    name: "Constant_277"
    op_type: "Constant"
    attribute {
      name: "value"
      t {
        dims: 1
        data_type: 7
      }
      type: TENSOR
    }
  }
  node {
    input: "1106"
    input: "1108"
    input: "1109"
    input: "1107"
    output: "1110"
    name: "Slice_278"
    op_type: "Slice"
  }
  node {
    input: "1105"
    output: "1111"
    name: "Cast_279"
    op_type: "Cast"
    attribute {
      name: "to"
      i: 7
      type: INT
    }
  }
  node {
    input: "1110"
    input: "1111"
    output: "1112"
    name: "Concat_280"
    op_type: "Concat"
    attribute {
      name: "axis"
      i: 0
      type: INT
    }
  }
  node {
    output: "1113"
    name: "Constant_281"
    op_type: "Constant"
    attribute {
      name: "value"
      t {
        dims: 0
        data_type: 1
      }
      type: TENSOR
    }
  }
  node {
    output: "1114"
    name: "Constant_282"
    op_type: "Constant"
    attribute {
      name: "value"
      t {
        dims: 0
        data_type: 1
      }
      type: TENSOR
    }
  }
  node {
    input: "1096"
    input: "1113"
    input: "1114"
    input: "1112"
    output: "1115"
    name: "Resize_283"
    op_type: "Resize"
    attribute {
      name: "coordinate_transformation_mode"
      s: "pytorch_half_pixel"
      type: STRING
    }
    attribute {
      name: "cubic_coeff_a"
      f: -0.75
      type: FLOAT
    }
    attribute {
      name: "mode"
      s: "linear"
      type: STRING
    }
    attribute {
      name: "nearest_mode"
      s: "floor"
      type: STRING
    }
  }
  node {
    input: "1115"
    input: "1085"
    output: "1116"
    name: "Concat_284"
    op_type: "Concat"
    attribute {
      name: "axis"
      i: 1
      type: INT
    }
  }
  node {
    input: "1116"
    input: "2066"
    input: "2067"
    output: "2065"
    name: "Conv_285"
    op_type: "Conv"
    attribute {
      name: "dilations"
      ints: 1
      ints: 1
      type: INTS
    }
    attribute {
      name: "group"
      i: 1
      type: INT
    }
    attribute {
      name: "kernel_shape"
      ints: 3
      ints: 3
      type: INTS
    }
    attribute {
      name: "pads"
      ints: 1
      ints: 1
      ints: 1
      ints: 1
      type: INTS
    }
    attribute {
      name: "strides"
      ints: 1
      ints: 1
      type: INTS
    }
  }
  node {
    input: "2065"
    output: "1119"
    name: "Relu_286"
    op_type: "Relu"
  }
  node {
    input: "1081"
    output: "1120"
    name: "Shape_287"
    op_type: "Shape"
  }
  node {
    output: "1121"
    name: "Constant_288"
    op_type: "Constant"
    attribute {
      name: "value"
      t {
        data_type: 7
      }
      type: TENSOR
    }
  }
  node {
    input: "1120"
    input: "1121"
    output: "1122"
    name: "Gather_289"
    op_type: "Gather"
    attribute {
      name: "axis"
      i: 0
      type: INT
    }
  }
  node {
    input: "1081"
    output: "1123"
    name: "Shape_290"
    op_type: "Shape"
  }
  node {
    output: "1124"
    name: "Constant_291"
    op_type: "Constant"
    attribute {
      name: "value"
      t {
        data_type: 7
      }
      type: TENSOR
    }
  }
  node {
    input: "1123"
    input: "1124"
    output: "1125"
    name: "Gather_292"
    op_type: "Gather"
    attribute {
      name: "axis"
      i: 0
      type: INT
    }
  }
  node {
    input: "1122"
    output: "1126"
    name: "Unsqueeze_293"
    op_type: "Unsqueeze"
    attribute {
      name: "axes"
      ints: 0
      type: INTS
    }
  }
  node {
    input: "1125"
    output: "1127"
    name: "Unsqueeze_294"
    op_type: "Unsqueeze"
    attribute {
      name: "axes"
      ints: 0
      type: INTS
    }
  }
  node {
    input: "1126"
    input: "1127"
    output: "1128"
    name: "Concat_295"
    op_type: "Concat"
    attribute {
      name: "axis"
      i: 0
      type: INT
    }
  }
  node {
    input: "1119"
    output: "1129"
    name: "Shape_296"
    op_type: "Shape"
  }
  node {
    output: "1130"
    name: "Constant_297"
    op_type: "Constant"
    attribute {
      name: "value"
      t {
        dims: 1
        data_type: 7
      }
      type: TENSOR
    }
  }
  node {
    output: "1131"
    name: "Constant_298"
    op_type: "Constant"
    attribute {
      name: "value"
      t {
        dims: 1
        data_type: 7
      }
      type: TENSOR
    }
  }
  node {
    output: "1132"
    name: "Constant_299"
    op_type: "Constant"
    attribute {
      name: "value"
      t {
        dims: 1
        data_type: 7
      }
      type: TENSOR
    }
  }
  node {
    input: "1129"
    input: "1131"
    input: "1132"
    input: "1130"
    output: "1133"
    name: "Slice_300"
    op_type: "Slice"
  }
  node {
    input: "1128"
    output: "1134"
    name: "Cast_301"
    op_type: "Cast"
    attribute {
      name: "to"
      i: 7
      type: INT
    }
  }
  node {
    input: "1133"
    input: "1134"
    output: "1135"
    name: "Concat_302"
    op_type: "Concat"
    attribute {
      name: "axis"
      i: 0
      type: INT
    }
  }
  node {
    output: "1136"
    name: "Constant_303"
    op_type: "Constant"
    attribute {
      name: "value"
      t {
        dims: 0
        data_type: 1
      }
      type: TENSOR
    }
  }
  node {
    output: "1137"
    name: "Constant_304"
    op_type: "Constant"
    attribute {
      name: "value"
      t {
        dims: 0
        data_type: 1
      }
      type: TENSOR
    }
  }
  node {
    input: "1119"
    input: "1136"
    input: "1137"
    input: "1135"
    output: "1138"
    name: "Resize_305"
    op_type: "Resize"
    attribute {
      name: "coordinate_transformation_mode"
      s: "pytorch_half_pixel"
      type: STRING
    }
    attribute {
      name: "cubic_coeff_a"
      f: -0.75
      type: FLOAT
    }
    attribute {
      name: "mode"
      s: "linear"
      type: STRING
    }
    attribute {
      name: "nearest_mode"
      s: "floor"
      type: STRING
    }
  }
  node {
    input: "1138"
    input: "1081"
    output: "1139"
    name: "Concat_306"
    op_type: "Concat"
    attribute {
      name: "axis"
      i: 1
      type: INT
    }
  }
  node {
    input: "1139"
    input: "2069"
    input: "2070"
    output: "2068"
    name: "Conv_307"
    op_type: "Conv"
    attribute {
      name: "dilations"
      ints: 1
      ints: 1
      type: INTS
    }
    attribute {
      name: "group"
      i: 1
      type: INT
    }
    attribute {
      name: "kernel_shape"
      ints: 3
      ints: 3
      type: INTS
    }
    attribute {
      name: "pads"
      ints: 1
      ints: 1
      ints: 1
      ints: 1
      type: INTS
    }
    attribute {
      name: "strides"
      ints: 1
      ints: 1
      type: INTS
    }
  }
  node {
    input: "2068"
    output: "1142"
    name: "Relu_308"
    op_type: "Relu"
  }
  node {
    input: "1077"
    output: "1143"
    name: "Shape_309"
    op_type: "Shape"
  }
  node {
    output: "1144"
    name: "Constant_310"
    op_type: "Constant"
    attribute {
      name: "value"
      t {
        data_type: 7
      }
      type: TENSOR
    }
  }
  node {
    input: "1143"
    input: "1144"
    output: "1145"
    name: "Gather_311"
    op_type: "Gather"
    attribute {
      name: "axis"
      i: 0
      type: INT
    }
  }
  node {
    input: "1077"
    output: "1146"
    name: "Shape_312"
    op_type: "Shape"
  }
  node {
    output: "1147"
    name: "Constant_313"
    op_type: "Constant"
    attribute {
      name: "value"
      t {
        data_type: 7
      }
      type: TENSOR
    }
  }
  node {
    input: "1146"
    input: "1147"
    output: "1148"
    name: "Gather_314"
    op_type: "Gather"
    attribute {
      name: "axis"
      i: 0
      type: INT
    }
  }
  node {
    input: "1145"
    output: "1149"
    name: "Unsqueeze_315"
    op_type: "Unsqueeze"
    attribute {
      name: "axes"
      ints: 0
      type: INTS
    }
  }
  node {
    input: "1148"
    output: "1150"
    name: "Unsqueeze_316"
    op_type: "Unsqueeze"
    attribute {
      name: "axes"
      ints: 0
      type: INTS
    }
  }
  node {
    input: "1149"
    input: "1150"
    output: "1151"
    name: "Concat_317"
    op_type: "Concat"
    attribute {
      name: "axis"
      i: 0
      type: INT
    }
  }
  node {
    input: "1142"
    output: "1152"
    name: "Shape_318"
    op_type: "Shape"
  }
  node {
    output: "1153"
    name: "Constant_319"
    op_type: "Constant"
    attribute {
      name: "value"
      t {
        dims: 1
        data_type: 7
      }
      type: TENSOR
    }
  }
  node {
    output: "1154"
    name: "Constant_320"
    op_type: "Constant"
    attribute {
      name: "value"
      t {
        dims: 1
        data_type: 7
      }
      type: TENSOR
    }
  }
  node {
    output: "1155"
    name: "Constant_321"
    op_type: "Constant"
    attribute {
      name: "value"
      t {
        dims: 1
        data_type: 7
      }
      type: TENSOR
    }
  }
  node {
    input: "1152"
    input: "1154"
    input: "1155"
    input: "1153"
    output: "1156"
    name: "Slice_322"
    op_type: "Slice"
  }
  node {
    input: "1151"
    output: "1157"
    name: "Cast_323"
    op_type: "Cast"
    attribute {
      name: "to"
      i: 7
      type: INT
    }
  }
  node {
    input: "1156"
    input: "1157"
    output: "1158"
    name: "Concat_324"
    op_type: "Concat"
    attribute {
      name: "axis"
      i: 0
      type: INT
    }
  }
  node {
    output: "1159"
    name: "Constant_325"
    op_type: "Constant"
    attribute {
      name: "value"
      t {
        dims: 0
        data_type: 1
      }
      type: TENSOR
    }
  }
  node {
    output: "1160"
    name: "Constant_326"
    op_type: "Constant"
    attribute {
      name: "value"
      t {
        dims: 0
        data_type: 1
      }
      type: TENSOR
    }
  }
  node {
    input: "1142"
    input: "1159"
    input: "1160"
    input: "1158"
    output: "1161"
    name: "Resize_327"
    op_type: "Resize"
    attribute {
      name: "coordinate_transformation_mode"
      s: "pytorch_half_pixel"
      type: STRING
    }
    attribute {
      name: "cubic_coeff_a"
      f: -0.75
      type: FLOAT
    }
    attribute {
      name: "mode"
      s: "linear"
      type: STRING
    }
    attribute {
      name: "nearest_mode"
      s: "floor"
      type: STRING
    }
  }
  node {
    input: "1161"
    input: "1077"
    output: "1162"
    name: "Concat_328"
    op_type: "Concat"
    attribute {
      name: "axis"
      i: 1
      type: INT
    }
  }
  node {
    input: "1162"
    input: "2072"
    input: "2073"
    output: "2071"
    name: "Conv_329"
    op_type: "Conv"
    attribute {
      name: "dilations"
      ints: 1
      ints: 1
      type: INTS
    }
    attribute {
      name: "group"
      i: 1
      type: INT
    }
    attribute {
      name: "kernel_shape"
      ints: 3
      ints: 3
      type: INTS
    }
    attribute {
      name: "pads"
      ints: 1
      ints: 1
      ints: 1
      ints: 1
      type: INTS
    }
    attribute {
      name: "strides"
      ints: 1
      ints: 1
      type: INTS
    }
  }
  node {
    input: "2071"
    output: "1165"
    name: "Relu_330"
    op_type: "Relu"
  }
  node {
    input: "1165"
    input: "1074"
    output: "1166"
    name: "Add_331"
    op_type: "Add"
  }
  node {
    input: "1166"
    output: "1167"
    name: "MaxPool_332"
    op_type: "MaxPool"
    attribute {
      name: "ceil_mode"
      i: 1
      type: INT
    }
    attribute {
      name: "kernel_shape"
      ints: 2
      ints: 2
      type: INTS
    }
    attribute {
      name: "pads"
      ints: 0
      ints: 0
      ints: 0
      ints: 0
      type: INTS
    }
    attribute {
      name: "strides"
      ints: 2
      ints: 2
      type: INTS
    }
  }
  node {
    input: "1167"
    input: "2075"
    input: "2076"
    output: "2074"
    name: "Conv_333"
    op_type: "Conv"
    attribute {
      name: "dilations"
      ints: 1
      ints: 1
      type: INTS
    }
    attribute {
      name: "group"
      i: 1
      type: INT
    }
    attribute {
      name: "kernel_shape"
      ints: 3
      ints: 3
      type: INTS
    }
    attribute {
      name: "pads"
      ints: 1
      ints: 1
      ints: 1
      ints: 1
      type: INTS
    }
    attribute {
      name: "strides"
      ints: 1
      ints: 1
      type: INTS
    }
  }
  node {
    input: "2074"
    output: "1170"
    name: "Relu_334"
    op_type: "Relu"
  }
  node {
    input: "1170"
    input: "2078"
    input: "2079"
    output: "2077"
    name: "Conv_335"
    op_type: "Conv"
    attribute {
      name: "dilations"
      ints: 1
      ints: 1
      type: INTS
    }
    attribute {
      name: "group"
      i: 1
      type: INT
    }
    attribute {
      name: "kernel_shape"
      ints: 3
      ints: 3
      type: INTS
    }
    attribute {
      name: "pads"
      ints: 1
      ints: 1
      ints: 1
      ints: 1
      type: INTS
    }
    attribute {
      name: "strides"
      ints: 1
      ints: 1
      type: INTS
    }
  }
  node {
    input: "2077"
    output: "1173"
    name: "Relu_336"
    op_type: "Relu"
  }
  node {
    input: "1173"
    output: "1174"
    name: "MaxPool_337"
    op_type: "MaxPool"
    attribute {
      name: "ceil_mode"
      i: 1
      type: INT
    }
    attribute {
      name: "kernel_shape"
      ints: 2
      ints: 2
      type: INTS
    }
    attribute {
      name: "pads"
      ints: 0
      ints: 0
      ints: 0
      ints: 0
      type: INTS
    }
    attribute {
      name: "strides"
      ints: 2
      ints: 2
      type: INTS
    }
  }
  node {
    input: "1174"
    input: "2081"
    input: "2082"
    output: "2080"
    name: "Conv_338"
    op_type: "Conv"
    attribute {
      name: "dilations"
      ints: 1
      ints: 1
      type: INTS
    }
    attribute {
      name: "group"
      i: 1
      type: INT
    }
    attribute {
      name: "kernel_shape"
      ints: 3
      ints: 3
      type: INTS
    }
    attribute {
      name: "pads"
      ints: 1
      ints: 1
      ints: 1
      ints: 1
      type: INTS
    }
    attribute {
      name: "strides"
      ints: 1
      ints: 1
      type: INTS
    }
  }
  node {
    input: "2080"
    output: "1177"
    name: "Relu_339"
    op_type: "Relu"
  }
  node {
    input: "1177"
    output: "1178"
    name: "MaxPool_340"
    op_type: "MaxPool"
    attribute {
      name: "ceil_mode"
      i: 1
      type: INT
    }
    attribute {
      name: "kernel_shape"
      ints: 2
      ints: 2
      type: INTS
    }
    attribute {
      name: "pads"
      ints: 0
      ints: 0
      ints: 0
      ints: 0
      type: INTS
    }
    attribute {
      name: "strides"
      ints: 2
      ints: 2
      type: INTS
    }
  }
  node {
    input: "1178"
    input: "2084"
    input: "2085"
    output: "2083"
    name: "Conv_341"
    op_type: "Conv"
    attribute {
      name: "dilations"
      ints: 1
      ints: 1
      type: INTS
    }
    attribute {
      name: "group"
      i: 1
      type: INT
    }
    attribute {
      name: "kernel_shape"
      ints: 3
      ints: 3
      type: INTS
    }
    attribute {
      name: "pads"
      ints: 1
      ints: 1
      ints: 1
      ints: 1
      type: INTS
    }
    attribute {
      name: "strides"
      ints: 1
      ints: 1
      type: INTS
    }
  }
  node {
    input: "2083"
    output: "1181"
    name: "Relu_342"
    op_type: "Relu"
  }
  node {
    input: "1181"
    input: "2087"
    input: "2088"
    output: "2086"
    name: "Conv_343"
    op_type: "Conv"
    attribute {
      name: "dilations"
      ints: 2
      ints: 2
      type: INTS
    }
    attribute {
      name: "group"
      i: 1
      type: INT
    }
    attribute {
      name: "kernel_shape"
      ints: 3
      ints: 3
      type: INTS
    }
    attribute {
      name: "pads"
      ints: 2
      ints: 2
      ints: 2
      ints: 2
      type: INTS
    }
    attribute {
      name: "strides"
      ints: 1
      ints: 1
      type: INTS
    }
  }
  node {
    input: "2086"
    output: "1184"
    name: "Relu_344"
    op_type: "Relu"
  }
  node {
    input: "1184"
    input: "1181"
    output: "1185"
    name: "Concat_345"
    op_type: "Concat"
    attribute {
      name: "axis"
      i: 1
      type: INT
    }
  }
  node {
    input: "1185"
    input: "2090"
    input: "2091"
    output: "2089"
    name: "Conv_346"
    op_type: "Conv"
    attribute {
      name: "dilations"
      ints: 1
      ints: 1
      type: INTS
    }
    attribute {
      name: "group"
      i: 1
      type: INT
    }
    attribute {
      name: "kernel_shape"
      ints: 3
      ints: 3
      type: INTS
    }
    attribute {
      name: "pads"
      ints: 1
      ints: 1
      ints: 1
      ints: 1
      type: INTS
    }
    attribute {
      name: "strides"
      ints: 1
      ints: 1
      type: INTS
    }
  }
  node {
    input: "2089"
    output: "1188"
    name: "Relu_347"
    op_type: "Relu"
  }
  node {
    input: "1177"
    output: "1189"
    name: "Shape_348"
    op_type: "Shape"
  }
  node {
    output: "1190"
    name: "Constant_349"
    op_type: "Constant"
    attribute {
      name: "value"
      t {
        data_type: 7
      }
      type: TENSOR
    }
  }
  node {
    input: "1189"
    input: "1190"
    output: "1191"
    name: "Gather_350"
    op_type: "Gather"
    attribute {
      name: "axis"
      i: 0
      type: INT
    }
  }
  node {
    input: "1177"
    output: "1192"
    name: "Shape_351"
    op_type: "Shape"
  }
  node {
    output: "1193"
    name: "Constant_352"
    op_type: "Constant"
    attribute {
      name: "value"
      t {
        data_type: 7
      }
      type: TENSOR
    }
  }
  node {
    input: "1192"
    input: "1193"
    output: "1194"
    name: "Gather_353"
    op_type: "Gather"
    attribute {
      name: "axis"
      i: 0
      type: INT
    }
  }
  node {
    input: "1191"
    output: "1195"
    name: "Unsqueeze_354"
    op_type: "Unsqueeze"
    attribute {
      name: "axes"
      ints: 0
      type: INTS
    }
  }
  node {
    input: "1194"
    output: "1196"
    name: "Unsqueeze_355"
    op_type: "Unsqueeze"
    attribute {
      name: "axes"
      ints: 0
      type: INTS
    }
  }
  node {
    input: "1195"
    input: "1196"
    output: "1197"
    name: "Concat_356"
    op_type: "Concat"
    attribute {
      name: "axis"
      i: 0
      type: INT
    }
  }
  node {
    input: "1188"
    output: "1198"
    name: "Shape_357"
    op_type: "Shape"
  }
  node {
    output: "1199"
    name: "Constant_358"
    op_type: "Constant"
    attribute {
      name: "value"
      t {
        dims: 1
        data_type: 7
      }
      type: TENSOR
    }
  }
  node {
    output: "1200"
    name: "Constant_359"
    op_type: "Constant"
    attribute {
      name: "value"
      t {
        dims: 1
        data_type: 7
      }
      type: TENSOR
    }
  }
  node {
    output: "1201"
    name: "Constant_360"
    op_type: "Constant"
    attribute {
      name: "value"
      t {
        dims: 1
        data_type: 7
      }
      type: TENSOR
    }
  }
  node {
    input: "1198"
    input: "1200"
    input: "1201"
    input: "1199"
    output: "1202"
    name: "Slice_361"
    op_type: "Slice"
  }
  node {
    input: "1197"
    output: "1203"
    name: "Cast_362"
    op_type: "Cast"
    attribute {
      name: "to"
      i: 7
      type: INT
    }
  }
  node {
    input: "1202"
    input: "1203"
    output: "1204"
    name: "Concat_363"
    op_type: "Concat"
    attribute {
      name: "axis"
      i: 0
      type: INT
    }
  }
  node {
    output: "1205"
    name: "Constant_364"
    op_type: "Constant"
    attribute {
      name: "value"
      t {
        dims: 0
        data_type: 1
      }
      type: TENSOR
    }
  }
  node {
    output: "1206"
    name: "Constant_365"
    op_type: "Constant"
    attribute {
      name: "value"
      t {
        dims: 0
        data_type: 1
      }
      type: TENSOR
    }
  }
  node {
    input: "1188"
    input: "1205"
    input: "1206"
    input: "1204"
    output: "1207"
    name: "Resize_366"
    op_type: "Resize"
    attribute {
      name: "coordinate_transformation_mode"
      s: "pytorch_half_pixel"
      type: STRING
    }
    attribute {
      name: "cubic_coeff_a"
      f: -0.75
      type: FLOAT
    }
    attribute {
      name: "mode"
      s: "linear"
      type: STRING
    }
    attribute {
      name: "nearest_mode"
      s: "floor"
      type: STRING
    }
  }
  node {
    input: "1207"
    input: "1177"
    output: "1208"
    name: "Concat_367"
    op_type: "Concat"
    attribute {
      name: "axis"
      i: 1
      type: INT
    }
  }
  node {
    input: "1208"
    input: "2093"
    input: "2094"
    output: "2092"
    name: "Conv_368"
    op_type: "Conv"
    attribute {
      name: "dilations"
      ints: 1
      ints: 1
      type: INTS
    }
    attribute {
      name: "group"
      i: 1
      type: INT
    }
    attribute {
      name: "kernel_shape"
      ints: 3
      ints: 3
      type: INTS
    }
    attribute {
      name: "pads"
      ints: 1
      ints: 1
      ints: 1
      ints: 1
      type: INTS
    }
    attribute {
      name: "strides"
      ints: 1
      ints: 1
      type: INTS
    }
  }
  node {
    input: "2092"
    output: "1211"
    name: "Relu_369"
    op_type: "Relu"
  }
  node {
    input: "1173"
    output: "1212"
    name: "Shape_370"
    op_type: "Shape"
  }
  node {
    output: "1213"
    name: "Constant_371"
    op_type: "Constant"
    attribute {
      name: "value"
      t {
        data_type: 7
      }
      type: TENSOR
    }
  }
  node {
    input: "1212"
    input: "1213"
    output: "1214"
    name: "Gather_372"
    op_type: "Gather"
    attribute {
      name: "axis"
      i: 0
      type: INT
    }
  }
  node {
    input: "1173"
    output: "1215"
    name: "Shape_373"
    op_type: "Shape"
  }
  node {
    output: "1216"
    name: "Constant_374"
    op_type: "Constant"
    attribute {
      name: "value"
      t {
        data_type: 7
      }
      type: TENSOR
    }
  }
  node {
    input: "1215"
    input: "1216"
    output: "1217"
    name: "Gather_375"
    op_type: "Gather"
    attribute {
      name: "axis"
      i: 0
      type: INT
    }
  }
  node {
    input: "1214"
    output: "1218"
    name: "Unsqueeze_376"
    op_type: "Unsqueeze"
    attribute {
      name: "axes"
      ints: 0
      type: INTS
    }
  }
  node {
    input: "1217"
    output: "1219"
    name: "Unsqueeze_377"
    op_type: "Unsqueeze"
    attribute {
      name: "axes"
      ints: 0
      type: INTS
    }
  }
  node {
    input: "1218"
    input: "1219"
    output: "1220"
    name: "Concat_378"
    op_type: "Concat"
    attribute {
      name: "axis"
      i: 0
      type: INT
    }
  }
  node {
    input: "1211"
    output: "1221"
    name: "Shape_379"
    op_type: "Shape"
  }
  node {
    output: "1222"
    name: "Constant_380"
    op_type: "Constant"
    attribute {
      name: "value"
      t {
        dims: 1
        data_type: 7
      }
      type: TENSOR
    }
  }
  node {
    output: "1223"
    name: "Constant_381"
    op_type: "Constant"
    attribute {
      name: "value"
      t {
        dims: 1
        data_type: 7
      }
      type: TENSOR
    }
  }
  node {
    output: "1224"
    name: "Constant_382"
    op_type: "Constant"
    attribute {
      name: "value"
      t {
        dims: 1
        data_type: 7
      }
      type: TENSOR
    }
  }
  node {
    input: "1221"
    input: "1223"
    input: "1224"
    input: "1222"
    output: "1225"
    name: "Slice_383"
    op_type: "Slice"
  }
  node {
    input: "1220"
    output: "1226"
    name: "Cast_384"
    op_type: "Cast"
    attribute {
      name: "to"
      i: 7
      type: INT
    }
  }
  node {
    input: "1225"
    input: "1226"
    output: "1227"
    name: "Concat_385"
    op_type: "Concat"
    attribute {
      name: "axis"
      i: 0
      type: INT
    }
  }
  node {
    output: "1228"
    name: "Constant_386"
    op_type: "Constant"
    attribute {
      name: "value"
      t {
        dims: 0
        data_type: 1
      }
      type: TENSOR
    }
  }
  node {
    output: "1229"
    name: "Constant_387"
    op_type: "Constant"
    attribute {
      name: "value"
      t {
        dims: 0
        data_type: 1
      }
      type: TENSOR
    }
  }
  node {
    input: "1211"
    input: "1228"
    input: "1229"
    input: "1227"
    output: "1230"
    name: "Resize_388"
    op_type: "Resize"
    attribute {
      name: "coordinate_transformation_mode"
      s: "pytorch_half_pixel"
      type: STRING
    }
    attribute {
      name: "cubic_coeff_a"
      f: -0.75
      type: FLOAT
    }
    attribute {
      name: "mode"
      s: "linear"
      type: STRING
    }
    attribute {
      name: "nearest_mode"
      s: "floor"
      type: STRING
    }
  }
  node {
    input: "1230"
    input: "1173"
    output: "1231"
    name: "Concat_389"
    op_type: "Concat"
    attribute {
      name: "axis"
      i: 1
      type: INT
    }
  }
  node {
    input: "1231"
    input: "2096"
    input: "2097"
    output: "2095"
    name: "Conv_390"
    op_type: "Conv"
    attribute {
      name: "dilations"
      ints: 1
      ints: 1
      type: INTS
    }
    attribute {
      name: "group"
      i: 1
      type: INT
    }
    attribute {
      name: "kernel_shape"
      ints: 3
      ints: 3
      type: INTS
    }
    attribute {
      name: "pads"
      ints: 1
      ints: 1
      ints: 1
      ints: 1
      type: INTS
    }
    attribute {
      name: "strides"
      ints: 1
      ints: 1
      type: INTS
    }
  }
  node {
    input: "2095"
    output: "1234"
    name: "Relu_391"
    op_type: "Relu"
  }
  node {
    input: "1234"
    input: "1170"
    output: "1235"
    name: "Add_392"
    op_type: "Add"
  }
  node {
    input: "1235"
    output: "1236"
    name: "MaxPool_393"
    op_type: "MaxPool"
    attribute {
      name: "ceil_mode"
      i: 1
      type: INT
    }
    attribute {
      name: "kernel_shape"
      ints: 2
      ints: 2
      type: INTS
    }
    attribute {
      name: "pads"
      ints: 0
      ints: 0
      ints: 0
      ints: 0
      type: INTS
    }
    attribute {
      name: "strides"
      ints: 2
      ints: 2
      type: INTS
    }
  }
  node {
    input: "1236"
    input: "2099"
    input: "2100"
    output: "2098"
    name: "Conv_394"
    op_type: "Conv"
    attribute {
      name: "dilations"
      ints: 1
      ints: 1
      type: INTS
    }
    attribute {
      name: "group"
      i: 1
      type: INT
    }
    attribute {
      name: "kernel_shape"
      ints: 3
      ints: 3
      type: INTS
    }
    attribute {
      name: "pads"
      ints: 1
      ints: 1
      ints: 1
      ints: 1
      type: INTS
    }
    attribute {
      name: "strides"
      ints: 1
      ints: 1
      type: INTS
    }
  }
  node {
    input: "2098"
    output: "1239"
    name: "Relu_395"
    op_type: "Relu"
  }
  node {
    input: "1239"
    input: "2102"
    input: "2103"
    output: "2101"
    name: "Conv_396"
    op_type: "Conv"
    attribute {
      name: "dilations"
      ints: 1
      ints: 1
      type: INTS
    }
    attribute {
      name: "group"
      i: 1
      type: INT
    }
    attribute {
      name: "kernel_shape"
      ints: 3
      ints: 3
      type: INTS
    }
    attribute {
      name: "pads"
      ints: 1
      ints: 1
      ints: 1
      ints: 1
      type: INTS
    }
    attribute {
      name: "strides"
      ints: 1
      ints: 1
      type: INTS
    }
  }
  node {
    input: "2101"
    output: "1242"
    name: "Relu_397"
    op_type: "Relu"
  }
  node {
    input: "1242"
    input: "2105"
    input: "2106"
    output: "2104"
    name: "Conv_398"
    op_type: "Conv"
    attribute {
      name: "dilations"
      ints: 2
      ints: 2
      type: INTS
    }
    attribute {
      name: "group"
      i: 1
      type: INT
    }
    attribute {
      name: "kernel_shape"
      ints: 3
      ints: 3
      type: INTS
    }
    attribute {
      name: "pads"
      ints: 2
      ints: 2
      ints: 2
      ints: 2
      type: INTS
    }
    attribute {
      name: "strides"
      ints: 1
      ints: 1
      type: INTS
    }
  }
  node {
    input: "2104"
    output: "1245"
    name: "Relu_399"
    op_type: "Relu"
  }
  node {
    input: "1245"
    input: "2108"
    input: "2109"
    output: "2107"
    name: "Conv_400"
    op_type: "Conv"
    attribute {
      name: "dilations"
      ints: 4
      ints: 4
      type: INTS
    }
    attribute {
      name: "group"
      i: 1
      type: INT
    }
    attribute {
      name: "kernel_shape"
      ints: 3
      ints: 3
      type: INTS
    }
    attribute {
      name: "pads"
      ints: 4
      ints: 4
      ints: 4
      ints: 4
      type: INTS
    }
    attribute {
      name: "strides"
      ints: 1
      ints: 1
      type: INTS
    }
  }
  node {
    input: "2107"
    output: "1248"
    name: "Relu_401"
    op_type: "Relu"
  }
  node {
    input: "1248"
    input: "2111"
    input: "2112"
    output: "2110"
    name: "Conv_402"
    op_type: "Conv"
    attribute {
      name: "dilations"
      ints: 8
      ints: 8
      type: INTS
    }
    attribute {
      name: "group"
      i: 1
      type: INT
    }
    attribute {
      name: "kernel_shape"
      ints: 3
      ints: 3
      type: INTS
    }
    attribute {
      name: "pads"
      ints: 8
      ints: 8
      ints: 8
      ints: 8
      type: INTS
    }
    attribute {
      name: "strides"
      ints: 1
      ints: 1
      type: INTS
    }
  }
  node {
    input: "2110"
    output: "1251"
    name: "Relu_403"
    op_type: "Relu"
  }
  node {
    input: "1251"
    input: "1248"
    output: "1252"
    name: "Concat_404"
    op_type: "Concat"
    attribute {
      name: "axis"
      i: 1
      type: INT
    }
  }
  node {
    input: "1252"
    input: "2114"
    input: "2115"
    output: "2113"
    name: "Conv_405"
    op_type: "Conv"
    attribute {
      name: "dilations"
      ints: 4
      ints: 4
      type: INTS
    }
    attribute {
      name: "group"
      i: 1
      type: INT
    }
    attribute {
      name: "kernel_shape"
      ints: 3
      ints: 3
      type: INTS
    }
    attribute {
      name: "pads"
      ints: 4
      ints: 4
      ints: 4
      ints: 4
      type: INTS
    }
    attribute {
      name: "strides"
      ints: 1
      ints: 1
      type: INTS
    }
  }
  node {
    input: "2113"
    output: "1255"
    name: "Relu_406"
    op_type: "Relu"
  }
  node {
    input: "1255"
    input: "1245"
    output: "1256"
    name: "Concat_407"
    op_type: "Concat"
    attribute {
      name: "axis"
      i: 1
      type: INT
    }
  }
  node {
    input: "1256"
    input: "2117"
    input: "2118"
    output: "2116"
    name: "Conv_408"
    op_type: "Conv"
    attribute {
      name: "dilations"
      ints: 2
      ints: 2
      type: INTS
    }
    attribute {
      name: "group"
      i: 1
      type: INT
    }
    attribute {
      name: "kernel_shape"
      ints: 3
      ints: 3
      type: INTS
    }
    attribute {
      name: "pads"
      ints: 2
      ints: 2
      ints: 2
      ints: 2
      type: INTS
    }
    attribute {
      name: "strides"
      ints: 1
      ints: 1
      type: INTS
    }
  }
  node {
    input: "2116"
    output: "1259"
    name: "Relu_409"
    op_type: "Relu"
  }
  node {
    input: "1259"
    input: "1242"
    output: "1260"
    name: "Concat_410"
    op_type: "Concat"
    attribute {
      name: "axis"
      i: 1
      type: INT
    }
  }
  node {
    input: "1260"
    input: "2120"
    input: "2121"
    output: "2119"
    name: "Conv_411"
    op_type: "Conv"
    attribute {
      name: "dilations"
      ints: 1
      ints: 1
      type: INTS
    }
    attribute {
      name: "group"
      i: 1
      type: INT
    }
    attribute {
      name: "kernel_shape"
      ints: 3
      ints: 3
      type: INTS
    }
    attribute {
      name: "pads"
      ints: 1
      ints: 1
      ints: 1
      ints: 1
      type: INTS
    }
    attribute {
      name: "strides"
      ints: 1
      ints: 1
      type: INTS
    }
  }
  node {
    input: "2119"
    output: "1263"
    name: "Relu_412"
    op_type: "Relu"
  }
  node {
    input: "1263"
    input: "1239"
    output: "1264"
    name: "Add_413"
    op_type: "Add"
  }
  node {
    input: "1264"
    output: "1265"
    name: "MaxPool_414"
    op_type: "MaxPool"
    attribute {
      name: "ceil_mode"
      i: 1
      type: INT
    }
    attribute {
      name: "kernel_shape"
      ints: 2
      ints: 2
      type: INTS
    }
    attribute {
      name: "pads"
      ints: 0
      ints: 0
      ints: 0
      ints: 0
      type: INTS
    }
    attribute {
      name: "strides"
      ints: 2
      ints: 2
      type: INTS
    }
  }
  node {
    input: "1265"
    input: "2123"
    input: "2124"
    output: "2122"
    name: "Conv_415"
    op_type: "Conv"
    attribute {
      name: "dilations"
      ints: 1
      ints: 1
      type: INTS
    }
    attribute {
      name: "group"
      i: 1
      type: INT
    }
    attribute {
      name: "kernel_shape"
      ints: 3
      ints: 3
      type: INTS
    }
    attribute {
      name: "pads"
      ints: 1
      ints: 1
      ints: 1
      ints: 1
      type: INTS
    }
    attribute {
      name: "strides"
      ints: 1
      ints: 1
      type: INTS
    }
  }
  node {
    input: "2122"
    output: "1268"
    name: "Relu_416"
    op_type: "Relu"
  }
  node {
    input: "1268"
    input: "2126"
    input: "2127"
    output: "2125"
    name: "Conv_417"
    op_type: "Conv"
    attribute {
      name: "dilations"
      ints: 1
      ints: 1
      type: INTS
    }
    attribute {
      name: "group"
      i: 1
      type: INT
    }
    attribute {
      name: "kernel_shape"
      ints: 3
      ints: 3
      type: INTS
    }
    attribute {
      name: "pads"
      ints: 1
      ints: 1
      ints: 1
      ints: 1
      type: INTS
    }
    attribute {
      name: "strides"
      ints: 1
      ints: 1
      type: INTS
    }
  }
  node {
    input: "2125"
    output: "1271"
    name: "Relu_418"
    op_type: "Relu"
  }
  node {
    input: "1271"
    input: "2129"
    input: "2130"
    output: "2128"
    name: "Conv_419"
    op_type: "Conv"
    attribute {
      name: "dilations"
      ints: 2
      ints: 2
      type: INTS
    }
    attribute {
      name: "group"
      i: 1
      type: INT
    }
    attribute {
      name: "kernel_shape"
      ints: 3
      ints: 3
      type: INTS
    }
    attribute {
      name: "pads"
      ints: 2
      ints: 2
      ints: 2
      ints: 2
      type: INTS
    }
    attribute {
      name: "strides"
      ints: 1
      ints: 1
      type: INTS
    }
  }
  node {
    input: "2128"
    output: "1274"
    name: "Relu_420"
    op_type: "Relu"
  }
  node {
    input: "1274"
    input: "2132"
    input: "2133"
    output: "2131"
    name: "Conv_421"
    op_type: "Conv"
    attribute {
      name: "dilations"
      ints: 4
      ints: 4
      type: INTS
    }
    attribute {
      name: "group"
      i: 1
      type: INT
    }
    attribute {
      name: "kernel_shape"
      ints: 3
      ints: 3
      type: INTS
    }
    attribute {
      name: "pads"
      ints: 4
      ints: 4
      ints: 4
      ints: 4
      type: INTS
    }
    attribute {
      name: "strides"
      ints: 1
      ints: 1
      type: INTS
    }
  }
  node {
    input: "2131"
    output: "1277"
    name: "Relu_422"
    op_type: "Relu"
  }
  node {
    input: "1277"
    input: "2135"
    input: "2136"
    output: "2134"
    name: "Conv_423"
    op_type: "Conv"
    attribute {
      name: "dilations"
      ints: 8
      ints: 8
      type: INTS
    }
    attribute {
      name: "group"
      i: 1
      type: INT
    }
    attribute {
      name: "kernel_shape"
      ints: 3
      ints: 3
      type: INTS
    }
    attribute {
      name: "pads"
      ints: 8
      ints: 8
      ints: 8
      ints: 8
      type: INTS
    }
    attribute {
      name: "strides"
      ints: 1
      ints: 1
      type: INTS
    }
  }
  node {
    input: "2134"
    output: "1280"
    name: "Relu_424"
    op_type: "Relu"
  }
  node {
    input: "1280"
    input: "1277"
    output: "1281"
    name: "Concat_425"
    op_type: "Concat"
    attribute {
      name: "axis"
      i: 1
      type: INT
    }
  }
  node {
    input: "1281"
    input: "2138"
    input: "2139"
    output: "2137"
    name: "Conv_426"
    op_type: "Conv"
    attribute {
      name: "dilations"
      ints: 4
      ints: 4
      type: INTS
    }
    attribute {
      name: "group"
      i: 1
      type: INT
    }
    attribute {
      name: "kernel_shape"
      ints: 3
      ints: 3
      type: INTS
    }
    attribute {
      name: "pads"
      ints: 4
      ints: 4
      ints: 4
      ints: 4
      type: INTS
    }
    attribute {
      name: "strides"
      ints: 1
      ints: 1
      type: INTS
    }
  }
  node {
    input: "2137"
    output: "1284"
    name: "Relu_427"
    op_type: "Relu"
  }
  node {
    input: "1284"
    input: "1274"
    output: "1285"
    name: "Concat_428"
    op_type: "Concat"
    attribute {
      name: "axis"
      i: 1
      type: INT
    }
  }
  node {
    input: "1285"
    input: "2141"
    input: "2142"
    output: "2140"
    name: "Conv_429"
    op_type: "Conv"
    attribute {
      name: "dilations"
      ints: 2
      ints: 2
      type: INTS
    }
    attribute {
      name: "group"
      i: 1
      type: INT
    }
    attribute {
      name: "kernel_shape"
      ints: 3
      ints: 3
      type: INTS
    }
    attribute {
      name: "pads"
      ints: 2
      ints: 2
      ints: 2
      ints: 2
      type: INTS
    }
    attribute {
      name: "strides"
      ints: 1
      ints: 1
      type: INTS
    }
  }
  node {
    input: "2140"
    output: "1288"
    name: "Relu_430"
    op_type: "Relu"
  }
  node {
    input: "1288"
    input: "1271"
    output: "1289"
    name: "Concat_431"
    op_type: "Concat"
    attribute {
      name: "axis"
      i: 1
      type: INT
    }
  }
  node {
    input: "1289"
    input: "2144"
    input: "2145"
    output: "2143"
    name: "Conv_432"
    op_type: "Conv"
    attribute {
      name: "dilations"
      ints: 1
      ints: 1
      type: INTS
    }
    attribute {
      name: "group"
      i: 1
      type: INT
    }
    attribute {
      name: "kernel_shape"
      ints: 3
      ints: 3
      type: INTS
    }
    attribute {
      name: "pads"
      ints: 1
      ints: 1
      ints: 1
      ints: 1
      type: INTS
    }
    attribute {
      name: "strides"
      ints: 1
      ints: 1
      type: INTS
    }
  }
  node {
    input: "2143"
    output: "1292"
    name: "Relu_433"
    op_type: "Relu"
  }
  node {
    input: "1292"
    input: "1268"
    output: "1293"
    name: "Add_434"
    op_type: "Add"
  }
  node {
    input: "1264"
    output: "1294"
    name: "Shape_435"
    op_type: "Shape"
  }
  node {
    output: "1295"
    name: "Constant_436"
    op_type: "Constant"
    attribute {
      name: "value"
      t {
        data_type: 7
      }
      type: TENSOR
    }
  }
  node {
    input: "1294"
    input: "1295"
    output: "1296"
    name: "Gather_437"
    op_type: "Gather"
    attribute {
      name: "axis"
      i: 0
      type: INT
    }
  }
  node {
    input: "1264"
    output: "1297"
    name: "Shape_438"
    op_type: "Shape"
  }
  node {
    output: "1298"
    name: "Constant_439"
    op_type: "Constant"
    attribute {
      name: "value"
      t {
        data_type: 7
      }
      type: TENSOR
    }
  }
  node {
    input: "1297"
    input: "1298"
    output: "1299"
    name: "Gather_440"
    op_type: "Gather"
    attribute {
      name: "axis"
      i: 0
      type: INT
    }
  }
  node {
    input: "1296"
    output: "1300"
    name: "Unsqueeze_441"
    op_type: "Unsqueeze"
    attribute {
      name: "axes"
      ints: 0
      type: INTS
    }
  }
  node {
    input: "1299"
    output: "1301"
    name: "Unsqueeze_442"
    op_type: "Unsqueeze"
    attribute {
      name: "axes"
      ints: 0
      type: INTS
    }
  }
  node {
    input: "1300"
    input: "1301"
    output: "1302"
    name: "Concat_443"
    op_type: "Concat"
    attribute {
      name: "axis"
      i: 0
      type: INT
    }
  }
  node {
    input: "1293"
    output: "1303"
    name: "Shape_444"
    op_type: "Shape"
  }
  node {
    output: "1304"
    name: "Constant_445"
    op_type: "Constant"
    attribute {
      name: "value"
      t {
        dims: 1
        data_type: 7
      }
      type: TENSOR
    }
  }
  node {
    output: "1305"
    name: "Constant_446"
    op_type: "Constant"
    attribute {
      name: "value"
      t {
        dims: 1
        data_type: 7
      }
      type: TENSOR
    }
  }
  node {
    output: "1306"
    name: "Constant_447"
    op_type: "Constant"
    attribute {
      name: "value"
      t {
        dims: 1
        data_type: 7
      }
      type: TENSOR
    }
  }
  node {
    input: "1303"
    input: "1305"
    input: "1306"
    input: "1304"
    output: "1307"
    name: "Slice_448"
    op_type: "Slice"
  }
  node {
    input: "1302"
    output: "1308"
    name: "Cast_449"
    op_type: "Cast"
    attribute {
      name: "to"
      i: 7
      type: INT
    }
  }
  node {
    input: "1307"
    input: "1308"
    output: "1309"
    name: "Concat_450"
    op_type: "Concat"
    attribute {
      name: "axis"
      i: 0
      type: INT
    }
  }
  node {
    output: "1310"
    name: "Constant_451"
    op_type: "Constant"
    attribute {
      name: "value"
      t {
        dims: 0
        data_type: 1
      }
      type: TENSOR
    }
  }
  node {
    output: "1311"
    name: "Constant_452"
    op_type: "Constant"
    attribute {
      name: "value"
      t {
        dims: 0
        data_type: 1
      }
      type: TENSOR
    }
  }
  node {
    input: "1293"
    input: "1310"
    input: "1311"
    input: "1309"
    output: "1312"
    name: "Resize_453"
    op_type: "Resize"
    attribute {
      name: "coordinate_transformation_mode"
      s: "pytorch_half_pixel"
      type: STRING
    }
    attribute {
      name: "cubic_coeff_a"
      f: -0.75
      type: FLOAT
    }
    attribute {
      name: "mode"
      s: "linear"
      type: STRING
    }
    attribute {
      name: "nearest_mode"
      s: "floor"
      type: STRING
    }
  }
  node {
    input: "1312"
    input: "1264"
    output: "1313"
    name: "Concat_454"
    op_type: "Concat"
    attribute {
      name: "axis"
      i: 1
      type: INT
    }
  }
  node {
    input: "1313"
    input: "2147"
    input: "2148"
    output: "2146"
    name: "Conv_455"
    op_type: "Conv"
    attribute {
      name: "dilations"
      ints: 1
      ints: 1
      type: INTS
    }
    attribute {
      name: "group"
      i: 1
      type: INT
    }
    attribute {
      name: "kernel_shape"
      ints: 3
      ints: 3
      type: INTS
    }
    attribute {
      name: "pads"
      ints: 1
      ints: 1
      ints: 1
      ints: 1
      type: INTS
    }
    attribute {
      name: "strides"
      ints: 1
      ints: 1
      type: INTS
    }
  }
  node {
    input: "2146"
    output: "1316"
    name: "Relu_456"
    op_type: "Relu"
  }
  node {
    input: "1316"
    input: "2150"
    input: "2151"
    output: "2149"
    name: "Conv_457"
    op_type: "Conv"
    attribute {
      name: "dilations"
      ints: 1
      ints: 1
      type: INTS
    }
    attribute {
      name: "group"
      i: 1
      type: INT
    }
    attribute {
      name: "kernel_shape"
      ints: 3
      ints: 3
      type: INTS
    }
    attribute {
      name: "pads"
      ints: 1
      ints: 1
      ints: 1
      ints: 1
      type: INTS
    }
    attribute {
      name: "strides"
      ints: 1
      ints: 1
      type: INTS
    }
  }
  node {
    input: "2149"
    output: "1319"
    name: "Relu_458"
    op_type: "Relu"
  }
  node {
    input: "1319"
    input: "2153"
    input: "2154"
    output: "2152"
    name: "Conv_459"
    op_type: "Conv"
    attribute {
      name: "dilations"
      ints: 2
      ints: 2
      type: INTS
    }
    attribute {
      name: "group"
      i: 1
      type: INT
    }
    attribute {
      name: "kernel_shape"
      ints: 3
      ints: 3
      type: INTS
    }
    attribute {
      name: "pads"
      ints: 2
      ints: 2
      ints: 2
      ints: 2
      type: INTS
    }
    attribute {
      name: "strides"
      ints: 1
      ints: 1
      type: INTS
    }
  }
  node {
    input: "2152"
    output: "1322"
    name: "Relu_460"
    op_type: "Relu"
  }
  node {
    input: "1322"
    input: "2156"
    input: "2157"
    output: "2155"
    name: "Conv_461"
    op_type: "Conv"
    attribute {
      name: "dilations"
      ints: 4
      ints: 4
      type: INTS
    }
    attribute {
      name: "group"
      i: 1
      type: INT
    }
    attribute {
      name: "kernel_shape"
      ints: 3
      ints: 3
      type: INTS
    }
    attribute {
      name: "pads"
      ints: 4
      ints: 4
      ints: 4
      ints: 4
      type: INTS
    }
    attribute {
      name: "strides"
      ints: 1
      ints: 1
      type: INTS
    }
  }
  node {
    input: "2155"
    output: "1325"
    name: "Relu_462"
    op_type: "Relu"
  }
  node {
    input: "1325"
    input: "2159"
    input: "2160"
    output: "2158"
    name: "Conv_463"
    op_type: "Conv"
    attribute {
      name: "dilations"
      ints: 8
      ints: 8
      type: INTS
    }
    attribute {
      name: "group"
      i: 1
      type: INT
    }
    attribute {
      name: "kernel_shape"
      ints: 3
      ints: 3
      type: INTS
    }
    attribute {
      name: "pads"
      ints: 8
      ints: 8
      ints: 8
      ints: 8
      type: INTS
    }
    attribute {
      name: "strides"
      ints: 1
      ints: 1
      type: INTS
    }
  }
  node {
    input: "2158"
    output: "1328"
    name: "Relu_464"
    op_type: "Relu"
  }
  node {
    input: "1328"
    input: "1325"
    output: "1329"
    name: "Concat_465"
    op_type: "Concat"
    attribute {
      name: "axis"
      i: 1
      type: INT
    }
  }
  node {
    input: "1329"
    input: "2162"
    input: "2163"
    output: "2161"
    name: "Conv_466"
    op_type: "Conv"
    attribute {
      name: "dilations"
      ints: 4
      ints: 4
      type: INTS
    }
    attribute {
      name: "group"
      i: 1
      type: INT
    }
    attribute {
      name: "kernel_shape"
      ints: 3
      ints: 3
      type: INTS
    }
    attribute {
      name: "pads"
      ints: 4
      ints: 4
      ints: 4
      ints: 4
      type: INTS
    }
    attribute {
      name: "strides"
      ints: 1
      ints: 1
      type: INTS
    }
  }
  node {
    input: "2161"
    output: "1332"
    name: "Relu_467"
    op_type: "Relu"
  }
  node {
    input: "1332"
    input: "1322"
    output: "1333"
    name: "Concat_468"
    op_type: "Concat"
    attribute {
      name: "axis"
      i: 1
      type: INT
    }
  }
  node {
    input: "1333"
    input: "2165"
    input: "2166"
    output: "2164"
    name: "Conv_469"
    op_type: "Conv"
    attribute {
      name: "dilations"
      ints: 2
      ints: 2
      type: INTS
    }
    attribute {
      name: "group"
      i: 1
      type: INT
    }
    attribute {
      name: "kernel_shape"
      ints: 3
      ints: 3
      type: INTS
    }
    attribute {
      name: "pads"
      ints: 2
      ints: 2
      ints: 2
      ints: 2
      type: INTS
    }
    attribute {
      name: "strides"
      ints: 1
      ints: 1
      type: INTS
    }
  }
  node {
    input: "2164"
    output: "1336"
    name: "Relu_470"
    op_type: "Relu"
  }
  node {
    input: "1336"
    input: "1319"
    output: "1337"
    name: "Concat_471"
    op_type: "Concat"
    attribute {
      name: "axis"
      i: 1
      type: INT
    }
  }
  node {
    input: "1337"
    input: "2168"
    input: "2169"
    output: "2167"
    name: "Conv_472"
    op_type: "Conv"
    attribute {
      name: "dilations"
      ints: 1
      ints: 1
      type: INTS
    }
    attribute {
      name: "group"
      i: 1
      type: INT
    }
    attribute {
      name: "kernel_shape"
      ints: 3
      ints: 3
      type: INTS
    }
    attribute {
      name: "pads"
      ints: 1
      ints: 1
      ints: 1
      ints: 1
      type: INTS
    }
    attribute {
      name: "strides"
      ints: 1
      ints: 1
      type: INTS
    }
  }
  node {
    input: "2167"
    output: "1340"
    name: "Relu_473"
    op_type: "Relu"
  }
  node {
    input: "1340"
    input: "1316"
    output: "1341"
    name: "Add_474"
    op_type: "Add"
  }
  node {
    input: "1235"
    output: "1342"
    name: "Shape_475"
    op_type: "Shape"
  }
  node {
    output: "1343"
    name: "Constant_476"
    op_type: "Constant"
    attribute {
      name: "value"
      t {
        data_type: 7
      }
      type: TENSOR
    }
  }
  node {
    input: "1342"
    input: "1343"
    output: "1344"
    name: "Gather_477"
    op_type: "Gather"
    attribute {
      name: "axis"
      i: 0
      type: INT
    }
  }
  node {
    input: "1235"
    output: "1345"
    name: "Shape_478"
    op_type: "Shape"
  }
  node {
    output: "1346"
    name: "Constant_479"
    op_type: "Constant"
    attribute {
      name: "value"
      t {
        data_type: 7
      }
      type: TENSOR
    }
  }
  node {
    input: "1345"
    input: "1346"
    output: "1347"
    name: "Gather_480"
    op_type: "Gather"
    attribute {
      name: "axis"
      i: 0
      type: INT
    }
  }
  node {
    input: "1344"
    output: "1348"
    name: "Unsqueeze_481"
    op_type: "Unsqueeze"
    attribute {
      name: "axes"
      ints: 0
      type: INTS
    }
  }
  node {
    input: "1347"
    output: "1349"
    name: "Unsqueeze_482"
    op_type: "Unsqueeze"
    attribute {
      name: "axes"
      ints: 0
      type: INTS
    }
  }
  node {
    input: "1348"
    input: "1349"
    output: "1350"
    name: "Concat_483"
    op_type: "Concat"
    attribute {
      name: "axis"
      i: 0
      type: INT
    }
  }
  node {
    input: "1341"
    output: "1351"
    name: "Shape_484"
    op_type: "Shape"
  }
  node {
    output: "1352"
    name: "Constant_485"
    op_type: "Constant"
    attribute {
      name: "value"
      t {
        dims: 1
        data_type: 7
      }
      type: TENSOR
    }
  }
  node {
    output: "1353"
    name: "Constant_486"
    op_type: "Constant"
    attribute {
      name: "value"
      t {
        dims: 1
        data_type: 7
      }
      type: TENSOR
    }
  }
  node {
    output: "1354"
    name: "Constant_487"
    op_type: "Constant"
    attribute {
      name: "value"
      t {
        dims: 1
        data_type: 7
      }
      type: TENSOR
    }
  }
  node {
    input: "1351"
    input: "1353"
    input: "1354"
    input: "1352"
    output: "1355"
    name: "Slice_488"
    op_type: "Slice"
  }
  node {
    input: "1350"
    output: "1356"
    name: "Cast_489"
    op_type: "Cast"
    attribute {
      name: "to"
      i: 7
      type: INT
    }
  }
  node {
    input: "1355"
    input: "1356"
    output: "1357"
    name: "Concat_490"
    op_type: "Concat"
    attribute {
      name: "axis"
      i: 0
      type: INT
    }
  }
  node {
    output: "1358"
    name: "Constant_491"
    op_type: "Constant"
    attribute {
      name: "value"
      t {
        dims: 0
        data_type: 1
      }
      type: TENSOR
    }
  }
  node {
    output: "1359"
    name: "Constant_492"
    op_type: "Constant"
    attribute {
      name: "value"
      t {
        dims: 0
        data_type: 1
      }
      type: TENSOR
    }
  }
  node {
    input: "1341"
    input: "1358"
    input: "1359"
    input: "1357"
    output: "1360"
    name: "Resize_493"
    op_type: "Resize"
    attribute {
      name: "coordinate_transformation_mode"
      s: "pytorch_half_pixel"
      type: STRING
    }
    attribute {
      name: "cubic_coeff_a"
      f: -0.75
      type: FLOAT
    }
    attribute {
      name: "mode"
      s: "linear"
      type: STRING
    }
    attribute {
      name: "nearest_mode"
      s: "floor"
      type: STRING
    }
  }
  node {
    input: "1360"
    input: "1235"
    output: "1361"
    name: "Concat_494"
    op_type: "Concat"
    attribute {
      name: "axis"
      i: 1
      type: INT
    }
  }
  node {
    input: "1361"
    input: "2171"
    input: "2172"
    output: "2170"
    name: "Conv_495"
    op_type: "Conv"
    attribute {
      name: "dilations"
      ints: 1
      ints: 1
      type: INTS
    }
    attribute {
      name: "group"
      i: 1
      type: INT
    }
    attribute {
      name: "kernel_shape"
      ints: 3
      ints: 3
      type: INTS
    }
    attribute {
      name: "pads"
      ints: 1
      ints: 1
      ints: 1
      ints: 1
      type: INTS
    }
    attribute {
      name: "strides"
      ints: 1
      ints: 1
      type: INTS
    }
  }
  node {
    input: "2170"
    output: "1364"
    name: "Relu_496"
    op_type: "Relu"
  }
  node {
    input: "1364"
    input: "2174"
    input: "2175"
    output: "2173"
    name: "Conv_497"
    op_type: "Conv"
    attribute {
      name: "dilations"
      ints: 1
      ints: 1
      type: INTS
    }
    attribute {
      name: "group"
      i: 1
      type: INT
    }
    attribute {
      name: "kernel_shape"
      ints: 3
      ints: 3
      type: INTS
    }
    attribute {
      name: "pads"
      ints: 1
      ints: 1
      ints: 1
      ints: 1
      type: INTS
    }
    attribute {
      name: "strides"
      ints: 1
      ints: 1
      type: INTS
    }
  }
  node {
    input: "2173"
    output: "1367"
    name: "Relu_498"
    op_type: "Relu"
  }
  node {
    input: "1367"
    output: "1368"
    name: "MaxPool_499"
    op_type: "MaxPool"
    attribute {
      name: "ceil_mode"
      i: 1
      type: INT
    }
    attribute {
      name: "kernel_shape"
      ints: 2
      ints: 2
      type: INTS
    }
    attribute {
      name: "pads"
      ints: 0
      ints: 0
      ints: 0
      ints: 0
      type: INTS
    }
    attribute {
      name: "strides"
      ints: 2
      ints: 2
      type: INTS
    }
  }
  node {
    input: "1368"
    input: "2177"
    input: "2178"
    output: "2176"
    name: "Conv_500"
    op_type: "Conv"
    attribute {
      name: "dilations"
      ints: 1
      ints: 1
      type: INTS
    }
    attribute {
      name: "group"
      i: 1
      type: INT
    }
    attribute {
      name: "kernel_shape"
      ints: 3
      ints: 3
      type: INTS
    }
    attribute {
      name: "pads"
      ints: 1
      ints: 1
      ints: 1
      ints: 1
      type: INTS
    }
    attribute {
      name: "strides"
      ints: 1
      ints: 1
      type: INTS
    }
  }
  node {
    input: "2176"
    output: "1371"
    name: "Relu_501"
    op_type: "Relu"
  }
  node {
    input: "1371"
    output: "1372"
    name: "MaxPool_502"
    op_type: "MaxPool"
    attribute {
      name: "ceil_mode"
      i: 1
      type: INT
    }
    attribute {
      name: "kernel_shape"
      ints: 2
      ints: 2
      type: INTS
    }
    attribute {
      name: "pads"
      ints: 0
      ints: 0
      ints: 0
      ints: 0
      type: INTS
    }
    attribute {
      name: "strides"
      ints: 2
      ints: 2
      type: INTS
    }
  }
  node {
    input: "1372"
    input: "2180"
    input: "2181"
    output: "2179"
    name: "Conv_503"
    op_type: "Conv"
    attribute {
      name: "dilations"
      ints: 1
      ints: 1
      type: INTS
    }
    attribute {
      name: "group"
      i: 1
      type: INT
    }
    attribute {
      name: "kernel_shape"
      ints: 3
      ints: 3
      type: INTS
    }
    attribute {
      name: "pads"
      ints: 1
      ints: 1
      ints: 1
      ints: 1
      type: INTS
    }
    attribute {
      name: "strides"
      ints: 1
      ints: 1
      type: INTS
    }
  }
  node {
    input: "2179"
    output: "1375"
    name: "Relu_504"
    op_type: "Relu"
  }
  node {
    input: "1375"
    input: "2183"
    input: "2184"
    output: "2182"
    name: "Conv_505"
    op_type: "Conv"
    attribute {
      name: "dilations"
      ints: 2
      ints: 2
      type: INTS
    }
    attribute {
      name: "group"
      i: 1
      type: INT
    }
    attribute {
      name: "kernel_shape"
      ints: 3
      ints: 3
      type: INTS
    }
    attribute {
      name: "pads"
      ints: 2
      ints: 2
      ints: 2
      ints: 2
      type: INTS
    }
    attribute {
      name: "strides"
      ints: 1
      ints: 1
      type: INTS
    }
  }
  node {
    input: "2182"
    output: "1378"
    name: "Relu_506"
    op_type: "Relu"
  }
  node {
    input: "1378"
    input: "1375"
    output: "1379"
    name: "Concat_507"
    op_type: "Concat"
    attribute {
      name: "axis"
      i: 1
      type: INT
    }
  }
  node {
    input: "1379"
    input: "2186"
    input: "2187"
    output: "2185"
    name: "Conv_508"
    op_type: "Conv"
    attribute {
      name: "dilations"
      ints: 1
      ints: 1
      type: INTS
    }
    attribute {
      name: "group"
      i: 1
      type: INT
    }
    attribute {
      name: "kernel_shape"
      ints: 3
      ints: 3
      type: INTS
    }
    attribute {
      name: "pads"
      ints: 1
      ints: 1
      ints: 1
      ints: 1
      type: INTS
    }
    attribute {
      name: "strides"
      ints: 1
      ints: 1
      type: INTS
    }
  }
  node {
    input: "2185"
    output: "1382"
    name: "Relu_509"
    op_type: "Relu"
  }
  node {
    input: "1371"
    output: "1383"
    name: "Shape_510"
    op_type: "Shape"
  }
  node {
    output: "1384"
    name: "Constant_511"
    op_type: "Constant"
    attribute {
      name: "value"
      t {
        data_type: 7
      }
      type: TENSOR
    }
  }
  node {
    input: "1383"
    input: "1384"
    output: "1385"
    name: "Gather_512"
    op_type: "Gather"
    attribute {
      name: "axis"
      i: 0
      type: INT
    }
  }
  node {
    input: "1371"
    output: "1386"
    name: "Shape_513"
    op_type: "Shape"
  }
  node {
    output: "1387"
    name: "Constant_514"
    op_type: "Constant"
    attribute {
      name: "value"
      t {
        data_type: 7
      }
      type: TENSOR
    }
  }
  node {
    input: "1386"
    input: "1387"
    output: "1388"
    name: "Gather_515"
    op_type: "Gather"
    attribute {
      name: "axis"
      i: 0
      type: INT
    }
  }
  node {
    input: "1385"
    output: "1389"
    name: "Unsqueeze_516"
    op_type: "Unsqueeze"
    attribute {
      name: "axes"
      ints: 0
      type: INTS
    }
  }
  node {
    input: "1388"
    output: "1390"
    name: "Unsqueeze_517"
    op_type: "Unsqueeze"
    attribute {
      name: "axes"
      ints: 0
      type: INTS
    }
  }
  node {
    input: "1389"
    input: "1390"
    output: "1391"
    name: "Concat_518"
    op_type: "Concat"
    attribute {
      name: "axis"
      i: 0
      type: INT
    }
  }
  node {
    input: "1382"
    output: "1392"
    name: "Shape_519"
    op_type: "Shape"
  }
  node {
    output: "1393"
    name: "Constant_520"
    op_type: "Constant"
    attribute {
      name: "value"
      t {
        dims: 1
        data_type: 7
      }
      type: TENSOR
    }
  }
  node {
    output: "1394"
    name: "Constant_521"
    op_type: "Constant"
    attribute {
      name: "value"
      t {
        dims: 1
        data_type: 7
      }
      type: TENSOR
    }
  }
  node {
    output: "1395"
    name: "Constant_522"
    op_type: "Constant"
    attribute {
      name: "value"
      t {
        dims: 1
        data_type: 7
      }
      type: TENSOR
    }
  }
  node {
    input: "1392"
    input: "1394"
    input: "1395"
    input: "1393"
    output: "1396"
    name: "Slice_523"
    op_type: "Slice"
  }
  node {
    input: "1391"
    output: "1397"
    name: "Cast_524"
    op_type: "Cast"
    attribute {
      name: "to"
      i: 7
      type: INT
    }
  }
  node {
    input: "1396"
    input: "1397"
    output: "1398"
    name: "Concat_525"
    op_type: "Concat"
    attribute {
      name: "axis"
      i: 0
      type: INT
    }
  }
  node {
    output: "1399"
    name: "Constant_526"
    op_type: "Constant"
    attribute {
      name: "value"
      t {
        dims: 0
        data_type: 1
      }
      type: TENSOR
    }
  }
  node {
    output: "1400"
    name: "Constant_527"
    op_type: "Constant"
    attribute {
      name: "value"
      t {
        dims: 0
        data_type: 1
      }
      type: TENSOR
    }
  }
  node {
    input: "1382"
    input: "1399"
    input: "1400"
    input: "1398"
    output: "1401"
    name: "Resize_528"
    op_type: "Resize"
    attribute {
      name: "coordinate_transformation_mode"
      s: "pytorch_half_pixel"
      type: STRING
    }
    attribute {
      name: "cubic_coeff_a"
      f: -0.75
      type: FLOAT
    }
    attribute {
      name: "mode"
      s: "linear"
      type: STRING
    }
    attribute {
      name: "nearest_mode"
      s: "floor"
      type: STRING
    }
  }
  node {
    input: "1401"
    input: "1371"
    output: "1402"
    name: "Concat_529"
    op_type: "Concat"
    attribute {
      name: "axis"
      i: 1
      type: INT
    }
  }
  node {
    input: "1402"
    input: "2189"
    input: "2190"
    output: "2188"
    name: "Conv_530"
    op_type: "Conv"
    attribute {
      name: "dilations"
      ints: 1
      ints: 1
      type: INTS
    }
    attribute {
      name: "group"
      i: 1
      type: INT
    }
    attribute {
      name: "kernel_shape"
      ints: 3
      ints: 3
      type: INTS
    }
    attribute {
      name: "pads"
      ints: 1
      ints: 1
      ints: 1
      ints: 1
      type: INTS
    }
    attribute {
      name: "strides"
      ints: 1
      ints: 1
      type: INTS
    }
  }
  node {
    input: "2188"
    output: "1405"
    name: "Relu_531"
    op_type: "Relu"
  }
  node {
    input: "1367"
    output: "1406"
    name: "Shape_532"
    op_type: "Shape"
  }
  node {
    output: "1407"
    name: "Constant_533"
    op_type: "Constant"
    attribute {
      name: "value"
      t {
        data_type: 7
      }
      type: TENSOR
    }
  }
  node {
    input: "1406"
    input: "1407"
    output: "1408"
    name: "Gather_534"
    op_type: "Gather"
    attribute {
      name: "axis"
      i: 0
      type: INT
    }
  }
  node {
    input: "1367"
    output: "1409"
    name: "Shape_535"
    op_type: "Shape"
  }
  node {
    output: "1410"
    name: "Constant_536"
    op_type: "Constant"
    attribute {
      name: "value"
      t {
        data_type: 7
      }
      type: TENSOR
    }
  }
  node {
    input: "1409"
    input: "1410"
    output: "1411"
    name: "Gather_537"
    op_type: "Gather"
    attribute {
      name: "axis"
      i: 0
      type: INT
    }
  }
  node {
    input: "1408"
    output: "1412"
    name: "Unsqueeze_538"
    op_type: "Unsqueeze"
    attribute {
      name: "axes"
      ints: 0
      type: INTS
    }
  }
  node {
    input: "1411"
    output: "1413"
    name: "Unsqueeze_539"
    op_type: "Unsqueeze"
    attribute {
      name: "axes"
      ints: 0
      type: INTS
    }
  }
  node {
    input: "1412"
    input: "1413"
    output: "1414"
    name: "Concat_540"
    op_type: "Concat"
    attribute {
      name: "axis"
      i: 0
      type: INT
    }
  }
  node {
    input: "1405"
    output: "1415"
    name: "Shape_541"
    op_type: "Shape"
  }
  node {
    output: "1416"
    name: "Constant_542"
    op_type: "Constant"
    attribute {
      name: "value"
      t {
        dims: 1
        data_type: 7
      }
      type: TENSOR
    }
  }
  node {
    output: "1417"
    name: "Constant_543"
    op_type: "Constant"
    attribute {
      name: "value"
      t {
        dims: 1
        data_type: 7
      }
      type: TENSOR
    }
  }
  node {
    output: "1418"
    name: "Constant_544"
    op_type: "Constant"
    attribute {
      name: "value"
      t {
        dims: 1
        data_type: 7
      }
      type: TENSOR
    }
  }
  node {
    input: "1415"
    input: "1417"
    input: "1418"
    input: "1416"
    output: "1419"
    name: "Slice_545"
    op_type: "Slice"
  }
  node {
    input: "1414"
    output: "1420"
    name: "Cast_546"
    op_type: "Cast"
    attribute {
      name: "to"
      i: 7
      type: INT
    }
  }
  node {
    input: "1419"
    input: "1420"
    output: "1421"
    name: "Concat_547"
    op_type: "Concat"
    attribute {
      name: "axis"
      i: 0
      type: INT
    }
  }
  node {
    output: "1422"
    name: "Constant_548"
    op_type: "Constant"
    attribute {
      name: "value"
      t {
        dims: 0
        data_type: 1
      }
      type: TENSOR
    }
  }
  node {
    output: "1423"
    name: "Constant_549"
    op_type: "Constant"
    attribute {
      name: "value"
      t {
        dims: 0
        data_type: 1
      }
      type: TENSOR
    }
  }
  node {
    input: "1405"
    input: "1422"
    input: "1423"
    input: "1421"
    output: "1424"
    name: "Resize_550"
    op_type: "Resize"
    attribute {
      name: "coordinate_transformation_mode"
      s: "pytorch_half_pixel"
      type: STRING
    }
    attribute {
      name: "cubic_coeff_a"
      f: -0.75
      type: FLOAT
    }
    attribute {
      name: "mode"
      s: "linear"
      type: STRING
    }
    attribute {
      name: "nearest_mode"
      s: "floor"
      type: STRING
    }
  }
  node {
    input: "1424"
    input: "1367"
    output: "1425"
    name: "Concat_551"
    op_type: "Concat"
    attribute {
      name: "axis"
      i: 1
      type: INT
    }
  }
  node {
    input: "1425"
    input: "2192"
    input: "2193"
    output: "2191"
    name: "Conv_552"
    op_type: "Conv"
    attribute {
      name: "dilations"
      ints: 1
      ints: 1
      type: INTS
    }
    attribute {
      name: "group"
      i: 1
      type: INT
    }
    attribute {
      name: "kernel_shape"
      ints: 3
      ints: 3
      type: INTS
    }
    attribute {
      name: "pads"
      ints: 1
      ints: 1
      ints: 1
      ints: 1
      type: INTS
    }
    attribute {
      name: "strides"
      ints: 1
      ints: 1
      type: INTS
    }
  }
  node {
    input: "2191"
    output: "1428"
    name: "Relu_553"
    op_type: "Relu"
  }
  node {
    input: "1428"
    input: "1364"
    output: "1429"
    name: "Add_554"
    op_type: "Add"
  }
  node {
    input: "1166"
    output: "1430"
    name: "Shape_555"
    op_type: "Shape"
  }
  node {
    output: "1431"
    name: "Constant_556"
    op_type: "Constant"
    attribute {
      name: "value"
      t {
        data_type: 7
      }
      type: TENSOR
    }
  }
  node {
    input: "1430"
    input: "1431"
    output: "1432"
    name: "Gather_557"
    op_type: "Gather"
    attribute {
      name: "axis"
      i: 0
      type: INT
    }
  }
  node {
    input: "1166"
    output: "1433"
    name: "Shape_558"
    op_type: "Shape"
  }
  node {
    output: "1434"
    name: "Constant_559"
    op_type: "Constant"
    attribute {
      name: "value"
      t {
        data_type: 7
      }
      type: TENSOR
    }
  }
  node {
    input: "1433"
    input: "1434"
    output: "1435"
    name: "Gather_560"
    op_type: "Gather"
    attribute {
      name: "axis"
      i: 0
      type: INT
    }
  }
  node {
    input: "1432"
    output: "1436"
    name: "Unsqueeze_561"
    op_type: "Unsqueeze"
    attribute {
      name: "axes"
      ints: 0
      type: INTS
    }
  }
  node {
    input: "1435"
    output: "1437"
    name: "Unsqueeze_562"
    op_type: "Unsqueeze"
    attribute {
      name: "axes"
      ints: 0
      type: INTS
    }
  }
  node {
    input: "1436"
    input: "1437"
    output: "1438"
    name: "Concat_563"
    op_type: "Concat"
    attribute {
      name: "axis"
      i: 0
      type: INT
    }
  }
  node {
    input: "1429"
    output: "1439"
    name: "Shape_564"
    op_type: "Shape"
  }
  node {
    output: "1440"
    name: "Constant_565"
    op_type: "Constant"
    attribute {
      name: "value"
      t {
        dims: 1
        data_type: 7
      }
      type: TENSOR
    }
  }
  node {
    output: "1441"
    name: "Constant_566"
    op_type: "Constant"
    attribute {
      name: "value"
      t {
        dims: 1
        data_type: 7
      }
      type: TENSOR
    }
  }
  node {
    output: "1442"
    name: "Constant_567"
    op_type: "Constant"
    attribute {
      name: "value"
      t {
        dims: 1
        data_type: 7
      }
      type: TENSOR
    }
  }
  node {
    input: "1439"
    input: "1441"
    input: "1442"
    input: "1440"
    output: "1443"
    name: "Slice_568"
    op_type: "Slice"
  }
  node {
    input: "1438"
    output: "1444"
    name: "Cast_569"
    op_type: "Cast"
    attribute {
      name: "to"
      i: 7
      type: INT
    }
  }
  node {
    input: "1443"
    input: "1444"
    output: "1445"
    name: "Concat_570"
    op_type: "Concat"
    attribute {
      name: "axis"
      i: 0
      type: INT
    }
  }
  node {
    output: "1446"
    name: "Constant_571"
    op_type: "Constant"
    attribute {
      name: "value"
      t {
        dims: 0
        data_type: 1
      }
      type: TENSOR
    }
  }
  node {
    output: "1447"
    name: "Constant_572"
    op_type: "Constant"
    attribute {
      name: "value"
      t {
        dims: 0
        data_type: 1
      }
      type: TENSOR
    }
  }
  node {
    input: "1429"
    input: "1446"
    input: "1447"
    input: "1445"
    output: "1448"
    name: "Resize_573"
    op_type: "Resize"
    attribute {
      name: "coordinate_transformation_mode"
      s: "pytorch_half_pixel"
      type: STRING
    }
    attribute {
      name: "cubic_coeff_a"
      f: -0.75
      type: FLOAT
    }
    attribute {
      name: "mode"
      s: "linear"
      type: STRING
    }
    attribute {
      name: "nearest_mode"
      s: "floor"
      type: STRING
    }
  }
  node {
    input: "1448"
    input: "1166"
    output: "1449"
    name: "Concat_574"
    op_type: "Concat"
    attribute {
      name: "axis"
      i: 1
      type: INT
    }
  }
  node {
    input: "1449"
    input: "2195"
    input: "2196"
    output: "2194"
    name: "Conv_575"
    op_type: "Conv"
    attribute {
      name: "dilations"
      ints: 1
      ints: 1
      type: INTS
    }
    attribute {
      name: "group"
      i: 1
      type: INT
    }
    attribute {
      name: "kernel_shape"
      ints: 3
      ints: 3
      type: INTS
    }
    attribute {
      name: "pads"
      ints: 1
      ints: 1
      ints: 1
      ints: 1
      type: INTS
    }
    attribute {
      name: "strides"
      ints: 1
      ints: 1
      type: INTS
    }
  }
  node {
    input: "2194"
    output: "1452"
    name: "Relu_576"
    op_type: "Relu"
  }
  node {
    input: "1452"
    input: "2198"
    input: "2199"
    output: "2197"
    name: "Conv_577"
    op_type: "Conv"
    attribute {
      name: "dilations"
      ints: 1
      ints: 1
      type: INTS
    }
    attribute {
      name: "group"
      i: 1
      type: INT
    }
    attribute {
      name: "kernel_shape"
      ints: 3
      ints: 3
      type: INTS
    }
    attribute {
      name: "pads"
      ints: 1
      ints: 1
      ints: 1
      ints: 1
      type: INTS
    }
    attribute {
      name: "strides"
      ints: 1
      ints: 1
      type: INTS
    }
  }
  node {
    input: "2197"
    output: "1455"
    name: "Relu_578"
    op_type: "Relu"
  }
  node {
    input: "1455"
    output: "1456"
    name: "MaxPool_579"
    op_type: "MaxPool"
    attribute {
      name: "ceil_mode"
      i: 1
      type: INT
    }
    attribute {
      name: "kernel_shape"
      ints: 2
      ints: 2
      type: INTS
    }
    attribute {
      name: "pads"
      ints: 0
      ints: 0
      ints: 0
      ints: 0
      type: INTS
    }
    attribute {
      name: "strides"
      ints: 2
      ints: 2
      type: INTS
    }
  }
  node {
    input: "1456"
    input: "2201"
    input: "2202"
    output: "2200"
    name: "Conv_580"
    op_type: "Conv"
    attribute {
      name: "dilations"
      ints: 1
      ints: 1
      type: INTS
    }
    attribute {
      name: "group"
      i: 1
      type: INT
    }
    attribute {
      name: "kernel_shape"
      ints: 3
      ints: 3
      type: INTS
    }
    attribute {
      name: "pads"
      ints: 1
      ints: 1
      ints: 1
      ints: 1
      type: INTS
    }
    attribute {
      name: "strides"
      ints: 1
      ints: 1
      type: INTS
    }
  }
  node {
    input: "2200"
    output: "1459"
    name: "Relu_581"
    op_type: "Relu"
  }
  node {
    input: "1459"
    output: "1460"
    name: "MaxPool_582"
    op_type: "MaxPool"
    attribute {
      name: "ceil_mode"
      i: 1
      type: INT
    }
    attribute {
      name: "kernel_shape"
      ints: 2
      ints: 2
      type: INTS
    }
    attribute {
      name: "pads"
      ints: 0
      ints: 0
      ints: 0
      ints: 0
      type: INTS
    }
    attribute {
      name: "strides"
      ints: 2
      ints: 2
      type: INTS
    }
  }
  node {
    input: "1460"
    input: "2204"
    input: "2205"
    output: "2203"
    name: "Conv_583"
    op_type: "Conv"
    attribute {
      name: "dilations"
      ints: 1
      ints: 1
      type: INTS
    }
    attribute {
      name: "group"
      i: 1
      type: INT
    }
    attribute {
      name: "kernel_shape"
      ints: 3
      ints: 3
      type: INTS
    }
    attribute {
      name: "pads"
      ints: 1
      ints: 1
      ints: 1
      ints: 1
      type: INTS
    }
    attribute {
      name: "strides"
      ints: 1
      ints: 1
      type: INTS
    }
  }
  node {
    input: "2203"
    output: "1463"
    name: "Relu_584"
    op_type: "Relu"
  }
  node {
    input: "1463"
    output: "1464"
    name: "MaxPool_585"
    op_type: "MaxPool"
    attribute {
      name: "ceil_mode"
      i: 1
      type: INT
    }
    attribute {
      name: "kernel_shape"
      ints: 2
      ints: 2
      type: INTS
    }
    attribute {
      name: "pads"
      ints: 0
      ints: 0
      ints: 0
      ints: 0
      type: INTS
    }
    attribute {
      name: "strides"
      ints: 2
      ints: 2
      type: INTS
    }
  }
  node {
    input: "1464"
    input: "2207"
    input: "2208"
    output: "2206"
    name: "Conv_586"
    op_type: "Conv"
    attribute {
      name: "dilations"
      ints: 1
      ints: 1
      type: INTS
    }
    attribute {
      name: "group"
      i: 1
      type: INT
    }
    attribute {
      name: "kernel_shape"
      ints: 3
      ints: 3
      type: INTS
    }
    attribute {
      name: "pads"
      ints: 1
      ints: 1
      ints: 1
      ints: 1
      type: INTS
    }
    attribute {
      name: "strides"
      ints: 1
      ints: 1
      type: INTS
    }
  }
  node {
    input: "2206"
    output: "1467"
    name: "Relu_587"
    op_type: "Relu"
  }
  node {
    input: "1467"
    input: "2210"
    input: "2211"
    output: "2209"
    name: "Conv_588"
    op_type: "Conv"
    attribute {
      name: "dilations"
      ints: 2
      ints: 2
      type: INTS
    }
    attribute {
      name: "group"
      i: 1
      type: INT
    }
    attribute {
      name: "kernel_shape"
      ints: 3
      ints: 3
      type: INTS
    }
    attribute {
      name: "pads"
      ints: 2
      ints: 2
      ints: 2
      ints: 2
      type: INTS
    }
    attribute {
      name: "strides"
      ints: 1
      ints: 1
      type: INTS
    }
  }
  node {
    input: "2209"
    output: "1470"
    name: "Relu_589"
    op_type: "Relu"
  }
  node {
    input: "1470"
    input: "1467"
    output: "1471"
    name: "Concat_590"
    op_type: "Concat"
    attribute {
      name: "axis"
      i: 1
      type: INT
    }
  }
  node {
    input: "1471"
    input: "2213"
    input: "2214"
    output: "2212"
    name: "Conv_591"
    op_type: "Conv"
    attribute {
      name: "dilations"
      ints: 1
      ints: 1
      type: INTS
    }
    attribute {
      name: "group"
      i: 1
      type: INT
    }
    attribute {
      name: "kernel_shape"
      ints: 3
      ints: 3
      type: INTS
    }
    attribute {
      name: "pads"
      ints: 1
      ints: 1
      ints: 1
      ints: 1
      type: INTS
    }
    attribute {
      name: "strides"
      ints: 1
      ints: 1
      type: INTS
    }
  }
  node {
    input: "2212"
    output: "1474"
    name: "Relu_592"
    op_type: "Relu"
  }
  node {
    input: "1463"
    output: "1475"
    name: "Shape_593"
    op_type: "Shape"
  }
  node {
    output: "1476"
…
    op_type: "Gather"
    attribute {
      name: "axis"
      i: 0
      type: INT
    }
  }
  node {
    input: "1856"
    output: "1861"
    name: "Shape_950"
    op_type: "Shape"
  }
  node {
    output: "1862"
    name: "Constant_951"
    op_type: "Constant"
    attribute {
      name: "value"
      t {
        data_type: 7
      }
      type: TENSOR
    }
  }
  node {
    input: "1861"
    input: "1862"
    output: "1863"
    name: "Gather_952"
    op_type: "Gather"
    attribute {
      name: "axis"
      i: 0
      type: INT
    }
  }
  node {
    input: "1860"
    output: "1864"
    name: "Unsqueeze_953"
    op_type: "Unsqueeze"
    attribute {
      name: "axes"
      ints: 0
      type: INTS
    }
  }
  node {
    input: "1863"
    output: "1865"
    name: "Unsqueeze_954"
    op_type: "Unsqueeze"
    attribute {
      name: "axes"
      ints: 0
      type: INTS
    }
  }
  node {
    input: "1864"
    input: "1865"
    output: "1866"
    name: "Concat_955"
    op_type: "Concat"
    attribute {
      name: "axis"
      i: 0
      type: INT
    }
  }
  node {
    input: "1857"
    output: "1867"
    name: "Shape_956"
    op_type: "Shape"
  }
  node {
    output: "1868"
    name: "Constant_957"
    op_type: "Constant"
    attribute {
      name: "value"
      t {
        dims: 1
        data_type: 7
      }
      type: TENSOR
    }
  }
  node {
    output: "1869"
    name: "Constant_958"
    op_type: "Constant"
    attribute {
      name: "value"
      t {
        dims: 1
        data_type: 7
      }
      type: TENSOR
    }
  }
  node {
    output: "1870"
    name: "Constant_959"
    op_type: "Constant"
    attribute {
      name: "value"
      t {
        dims: 1
        data_type: 7
      }
      type: TENSOR
    }
  }
  node {
    input: "1867"
    input: "1869"
    input: "1870"
    input: "1868"
    output: "1871"
    name: "Slice_960"
    op_type: "Slice"
  }
  node {
    input: "1866"
    output: "1872"
    name: "Cast_961"
    op_type: "Cast"
    attribute {
      name: "to"
      i: 7
      type: INT
    }
  }
  node {
    input: "1871"
    input: "1872"
    output: "1873"
    name: "Concat_962"
    op_type: "Concat"
    attribute {
      name: "axis"
      i: 0
      type: INT
    }
  }
  node {
    output: "1874"
    name: "Constant_963"
    op_type: "Constant"
    attribute {
      name: "value"
      t {
        dims: 0
        data_type: 1
      }
      type: TENSOR
    }
  }
  node {
    output: "1875"
    name: "Constant_964"
    op_type: "Constant"
    attribute {
      name: "value"
      t {
        dims: 0
        data_type: 1
      }
      type: TENSOR
    }
  }
  node {
    input: "1857"
    input: "1874"
    input: "1875"
    input: "1873"
    output: "1876"
    name: "Resize_965"
    op_type: "Resize"
    attribute {
      name: "coordinate_transformation_mode"
      s: "pytorch_half_pixel"
      type: STRING
    }
    attribute {
      name: "cubic_coeff_a"
      f: -0.75
      type: FLOAT
    }
    attribute {
      name: "mode"
      s: "linear"
      type: STRING
    }
    attribute {
      name: "nearest_mode"
      s: "floor"
      type: STRING
    }
  }
  node {
    input: "1544"
    input: "side3.weight"
    input: "side3.bias"
    output: "1877"
    name: "Conv_966"
    op_type: "Conv"
    attribute {
      name: "dilations"
      ints: 1
      ints: 1
      type: INTS
    }
    attribute {
      name: "group"
      i: 1
      type: INT
    }
    attribute {
      name: "kernel_shape"
      ints: 3
      ints: 3
      type: INTS
    }
    attribute {
      name: "pads"
      ints: 1
      ints: 1
      ints: 1
      ints: 1
      type: INTS
    }
    attribute {
      name: "strides"
      ints: 1
      ints: 1
      type: INTS
    }
  }
  node {
    input: "1856"
    output: "1878"
    name: "Shape_967"
    op_type: "Shape"
  }
  node {
    output: "1879"
    name: "Constant_968"
    op_type: "Constant"
    attribute {
      name: "value"
      t {
        data_type: 7
      }
      type: TENSOR
    }
  }
  node {
    input: "1878"
    input: "1879"
    output: "1880"
    name: "Gather_969"
    op_type: "Gather"
    attribute {
      name: "axis"
      i: 0
      type: INT
    }
  }
  node {
    input: "1856"
    output: "1881"
    name: "Shape_970"
    op_type: "Shape"
  }
  node {
    output: "1882"
    name: "Constant_971"
    op_type: "Constant"
    attribute {
      name: "value"
      t {
        data_type: 7
      }
      type: TENSOR
    }
  }
  node {
    input: "1881"
    input: "1882"
    output: "1883"
    name: "Gather_972"
    op_type: "Gather"
    attribute {
      name: "axis"
      i: 0
      type: INT
    }
  }
  node {
    input: "1880"
    output: "1884"
    name: "Unsqueeze_973"
    op_type: "Unsqueeze"
    attribute {
      name: "axes"
      ints: 0
      type: INTS
    }
  }
  node {
    input: "1883"
    output: "1885"
    name: "Unsqueeze_974"
    op_type: "Unsqueeze"
    attribute {
      name: "axes"
      ints: 0
      type: INTS
    }
  }
  node {
    input: "1884"
    input: "1885"
    output: "1886"
    name: "Concat_975"
    op_type: "Concat"
    attribute {
      name: "axis"
      i: 0
      type: INT
    }
  }
  node {
    input: "1877"
    output: "1887"
    name: "Shape_976"
    op_type: "Shape"
  }
  node {
    output: "1888"
    name: "Constant_977"
    op_type: "Constant"
    attribute {
      name: "value"
      t {
        dims: 1
        data_type: 7
      }
      type: TENSOR
    }
  }
  node {
    output: "1889"
    name: "Constant_978"
    op_type: "Constant"
    attribute {
      name: "value"
      t {
        dims: 1
        data_type: 7
      }
      type: TENSOR
    }
  }
  node {
    output: "1890"
    name: "Constant_979"
    op_type: "Constant"
    attribute {
      name: "value"
      t {
        dims: 1
        data_type: 7
      }
      type: TENSOR
    }
  }
  node {
    input: "1887"
    input: "1889"
    input: "1890"
    input: "1888"
    output: "1891"
    name: "Slice_980"
    op_type: "Slice"
  }
  node {
    input: "1886"
    output: "1892"
    name: "Cast_981"
    op_type: "Cast"
    attribute {
      name: "to"
      i: 7
      type: INT
    }
  }
  node {
    input: "1891"
    input: "1892"
    output: "1893"
    name: "Concat_982"
    op_type: "Concat"
    attribute {
      name: "axis"
      i: 0
      type: INT
    }
  }
  node {
    output: "1894"
    name: "Constant_983"
    op_type: "Constant"
    attribute {
      name: "value"
      t {
        dims: 0
        data_type: 1
      }
      type: TENSOR
    }
  }
  node {
    output: "1895"
    name: "Constant_984"
    op_type: "Constant"
    attribute {
      name: "value"
      t {
        dims: 0
        data_type: 1
      }
      type: TENSOR
    }
  }
  node {
    input: "1877"
    input: "1894"
    input: "1895"
    input: "1893"
    output: "1896"
    name: "Resize_985"
    op_type: "Resize"
    attribute {
      name: "coordinate_transformation_mode"
      s: "pytorch_half_pixel"
      type: STRING
    }
    attribute {
      name: "cubic_coeff_a"
      f: -0.75
      type: FLOAT
    }
    attribute {
      name: "mode"
      s: "linear"
      type: STRING
    }
    attribute {
      name: "nearest_mode"
      s: "floor"
      type: STRING
    }
  }
  node {
    input: "1429"
    input: "side4.weight"
    input: "side4.bias"
    output: "1897"
    name: "Conv_986"
    op_type: "Conv"
    attribute {
      name: "dilations"
      ints: 1
      ints: 1
      type: INTS
    }
    attribute {
      name: "group"
      i: 1
      type: INT
    }
    attribute {
      name: "kernel_shape"
      ints: 3
      ints: 3
      type: INTS
    }
    attribute {
      name: "pads"
      ints: 1
      ints: 1
      ints: 1
      ints: 1
      type: INTS
    }
    attribute {
      name: "strides"
      ints: 1
      ints: 1
      type: INTS
    }
  }
  node {
    input: "1856"
    output: "1898"
    name: "Shape_987"
    op_type: "Shape"
  }
  node {
    output: "1899"
    name: "Constant_988"
    op_type: "Constant"
    attribute {
      name: "value"
      t {
        data_type: 7
      }
      type: TENSOR
    }
  }
  node {
    input: "1898"
    input: "1899"
    output: "1900"
    name: "Gather_989"
    op_type: "Gather"
    attribute {
      name: "axis"
      i: 0
      type: INT
    }
  }
  node {
    input: "1856"
    output: "1901"
    name: "Shape_990"
    op_type: "Shape"
  }
  node {
    output: "1902"
    name: "Constant_991"
    op_type: "Constant"
    attribute {
      name: "value"
      t {
        data_type: 7
      }
      type: TENSOR
    }
  }
  node {
    input: "1901"
    input: "1902"
    output: "1903"
    name: "Gather_992"
    op_type: "Gather"
    attribute {
      name: "axis"
      i: 0
      type: INT
    }
  }
  node {
    input: "1900"
    output: "1904"
    name: "Unsqueeze_993"
    op_type: "Unsqueeze"
    attribute {
      name: "axes"
      ints: 0
      type: INTS
    }
  }
  node {
    input: "1903"
    output: "1905"
    name: "Unsqueeze_994"
    op_type: "Unsqueeze"
    attribute {
      name: "axes"
      ints: 0
      type: INTS
    }
  }
  node {
    input: "1904"
    input: "1905"
    output: "1906"
    name: "Concat_995"
    op_type: "Concat"
    attribute {
      name: "axis"
      i: 0
      type: INT
    }
  }
  node {
    input: "1897"
    output: "1907"
    name: "Shape_996"
    op_type: "Shape"
  }
  node {
    output: "1908"
    name: "Constant_997"
    op_type: "Constant"
    attribute {
      name: "value"
      t {
        dims: 1
        data_type: 7
      }
      type: TENSOR
    }
  }
  node {
    output: "1909"
    name: "Constant_998"
    op_type: "Constant"
    attribute {
      name: "value"
      t {
        dims: 1
        data_type: 7
      }
      type: TENSOR
    }
  }
  node {
    output: "1910"
    name: "Constant_999"
    op_type: "Constant"
    attribute {
      name: "value"
      t {
        dims: 1
        data_type: 7
      }
      type: TENSOR
    }
  }
  node {
    input: "1907"
    input: "1909"
    input: "1910"
    input: "1908"
    output: "1911"
    name: "Slice_1000"
    op_type: "Slice"
  }
  node {
    input: "1906"
    output: "1912"
    name: "Cast_1001"
    op_type: "Cast"
    attribute {
      name: "to"
      i: 7
      type: INT
    }
  }
  node {
    input: "1911"
    input: "1912"
    output: "1913"
    name: "Concat_1002"
    op_type: "Concat"
    attribute {
      name: "axis"
      i: 0
      type: INT
    }
  }
  node {
    output: "1914"
    name: "Constant_1003"
    op_type: "Constant"
    attribute {
      name: "value"
      t {
        dims: 0
        data_type: 1
      }
      type: TENSOR
    }
  }
  node {
    output: "1915"
    name: "Constant_1004"
    op_type: "Constant"
    attribute {
      name: "value"
      t {
        dims: 0
        data_type: 1
      }
      type: TENSOR
    }
  }
  node {
    input: "1897"
    input: "1914"
    input: "1915"
    input: "1913"
    output: "1916"
    name: "Resize_1005"
    op_type: "Resize"
    attribute {
      name: "coordinate_transformation_mode"
      s: "pytorch_half_pixel"
      type: STRING
    }
    attribute {
      name: "cubic_coeff_a"
      f: -0.75
      type: FLOAT
    }
    attribute {
      name: "mode"
      s: "linear"
      type: STRING
    }
    attribute {
      name: "nearest_mode"
      s: "floor"
      type: STRING
    }
  }
  node {
    input: "1341"
    input: "side5.weight"
    input: "side5.bias"
    output: "1917"
    name: "Conv_1006"
    op_type: "Conv"
    attribute {
      name: "dilations"
      ints: 1
      ints: 1
      type: INTS
    }
    attribute {
      name: "group"
      i: 1
      type: INT
    }
    attribute {
      name: "kernel_shape"
      ints: 3
      ints: 3
      type: INTS
    }
    attribute {
      name: "pads"
      ints: 1
      ints: 1
      ints: 1
      ints: 1
      type: INTS
    }
    attribute {
      name: "strides"
      ints: 1
      ints: 1
      type: INTS
    }
  }
  node {
    input: "1856"
    output: "1918"
    name: "Shape_1007"
    op_type: "Shape"
  }
  node {
    output: "1919"
    name: "Constant_1008"
    op_type: "Constant"
    attribute {
      name: "value"
      t {
        data_type: 7
      }
      type: TENSOR
    }
  }
  node {
    input: "1918"
    input: "1919"
    output: "1920"
    name: "Gather_1009"
    op_type: "Gather"
    attribute {
      name: "axis"
      i: 0
      type: INT
    }
  }
  node {
    input: "1856"
    output: "1921"
    name: "Shape_1010"
    op_type: "Shape"
  }
  node {
    output: "1922"
    name: "Constant_1011"
    op_type: "Constant"
    attribute {
      name: "value"
      t {
        data_type: 7
      }
      type: TENSOR
    }
  }
  node {
    input: "1921"
    input: "1922"
    output: "1923"
    name: "Gather_1012"
    op_type: "Gather"
    attribute {
      name: "axis"
      i: 0
      type: INT
    }
  }
  node {
    input: "1920"
    output: "1924"
    name: "Unsqueeze_1013"
    op_type: "Unsqueeze"
    attribute {
      name: "axes"
      ints: 0
      type: INTS
    }
  }
  node {
    input: "1923"
    output: "1925"
    name: "Unsqueeze_1014"
    op_type: "Unsqueeze"
    attribute {
      name: "axes"
      ints: 0
      type: INTS
    }
  }
  node {
    input: "1924"
    input: "1925"
    output: "1926"
    name: "Concat_1015"
    op_type: "Concat"
    attribute {
      name: "axis"
      i: 0
      type: INT
    }
  }
  node {
    input: "1917"
    output: "1927"
    name: "Shape_1016"
    op_type: "Shape"
  }
  node {
    output: "1928"
    name: "Constant_1017"
    op_type: "Constant"
    attribute {
      name: "value"
      t {
        dims: 1
        data_type: 7
      }
      type: TENSOR
    }
  }
  node {
    output: "1929"
    name: "Constant_1018"
    op_type: "Constant"
    attribute {
      name: "value"
      t {
        dims: 1
        data_type: 7
      }
      type: TENSOR
    }
  }
  node {
    output: "1930"
    name: "Constant_1019"
    op_type: "Constant"
    attribute {
      name: "value"
      t {
        dims: 1
        data_type: 7
      }
      type: TENSOR
    }
  }
  node {
    input: "1927"
    input: "1929"
    input: "1930"
    input: "1928"
    output: "1931"
    name: "Slice_1020"
    op_type: "Slice"
  }
  node {
    input: "1926"
    output: "1932"
    name: "Cast_1021"
    op_type: "Cast"
    attribute {
      name: "to"
      i: 7
      type: INT
    }
  }
  node {
    input: "1931"
    input: "1932"
    output: "1933"
    name: "Concat_1022"
    op_type: "Concat"
    attribute {
      name: "axis"
      i: 0
      type: INT
    }
  }
  node {
    output: "1934"
    name: "Constant_1023"
    op_type: "Constant"
    attribute {
      name: "value"
      t {
        dims: 0
        data_type: 1
      }
      type: TENSOR
    }
  }
  node {
    output: "1935"
    name: "Constant_1024"
    op_type: "Constant"
    attribute {
      name: "value"
      t {
        dims: 0
        data_type: 1
      }
      type: TENSOR
    }
  }
  node {
    input: "1917"
    input: "1934"
    input: "1935"
    input: "1933"
    output: "1936"
    name: "Resize_1025"
    op_type: "Resize"
    attribute {
      name: "coordinate_transformation_mode"
      s: "pytorch_half_pixel"
      type: STRING
    }
    attribute {
      name: "cubic_coeff_a"
      f: -0.75
      type: FLOAT
    }
    attribute {
      name: "mode"
      s: "linear"
      type: STRING
    }
    attribute {
      name: "nearest_mode"
      s: "floor"
      type: STRING
    }
  }
  node {
    input: "1293"
    input: "side6.weight"
    input: "side6.bias"
    output: "1937"
    name: "Conv_1026"
    op_type: "Conv"
    attribute {
      name: "dilations"
      ints: 1
      ints: 1
      type: INTS
    }
    attribute {
      name: "group"
      i: 1
      type: INT
    }
    attribute {
      name: "kernel_shape"
      ints: 3
      ints: 3
      type: INTS
    }
    attribute {
      name: "pads"
      ints: 1
      ints: 1
      ints: 1
      ints: 1
      type: INTS
    }
    attribute {
      name: "strides"
      ints: 1
      ints: 1
      type: INTS
    }
  }
  node {
    input: "1856"
    output: "1938"
    name: "Shape_1027"
    op_type: "Shape"
  }
  node {
    output: "1939"
    name: "Constant_1028"
    op_type: "Constant"
    attribute {
      name: "value"
      t {
        data_type: 7
      }
      type: TENSOR
    }
  }
  node {
    input: "1938"
    input: "1939"
    output: "1940"
    name: "Gather_1029"
    op_type: "Gather"
    attribute {
      name: "axis"
      i: 0
      type: INT
    }
  }
  node {
    input: "1856"
    output: "1941"
    name: "Shape_1030"
    op_type: "Shape"
  }
  node {
    output: "1942"
    name: "Constant_1031"
    op_type: "Constant"
    attribute {
      name: "value"
      t {
        data_type: 7
      }
      type: TENSOR
    }
  }
  node {
    input: "1941"
    input: "1942"
    output: "1943"
    name: "Gather_1032"
    op_type: "Gather"
    attribute {
      name: "axis"
      i: 0
      type: INT
    }
  }
  node {
    input: "1940"
    output: "1944"
    name: "Unsqueeze_1033"
    op_type: "Unsqueeze"
    attribute {
      name: "axes"
      ints: 0
      type: INTS
    }
  }
  node {
    input: "1943"
    output: "1945"
    name: "Unsqueeze_1034"
    op_type: "Unsqueeze"
    attribute {
      name: "axes"
      ints: 0
      type: INTS
    }
  }
  node {
    input: "1944"
    input: "1945"
    output: "1946"
    name: "Concat_1035"
    op_type: "Concat"
    attribute {
      name: "axis"
      i: 0
      type: INT
    }
  }
  node {
    input: "1937"
    output: "1947"
    name: "Shape_1036"
    op_type: "Shape"
  }
  node {
    output: "1948"
    name: "Constant_1037"
    op_type: "Constant"
    attribute {
      name: "value"
      t {
        dims: 1
        data_type: 7
      }
      type: TENSOR
    }
  }
  node {
    output: "1949"
    name: "Constant_1038"
    op_type: "Constant"
    attribute {
      name: "value"
      t {
        dims: 1
        data_type: 7
      }
      type: TENSOR
    }
  }
  node {
    output: "1950"
    name: "Constant_1039"
    op_type: "Constant"
    attribute {
      name: "value"
      t {
        dims: 1
        data_type: 7
      }
      type: TENSOR
    }
  }
  node {
    input: "1947"
    input: "1949"
    input: "1950"
    input: "1948"
    output: "1951"
    name: "Slice_1040"
    op_type: "Slice"
  }
  node {
    input: "1946"
    output: "1952"
    name: "Cast_1041"
    op_type: "Cast"
    attribute {
      name: "to"
      i: 7
      type: INT
    }
  }
  node {
    input: "1951"
    input: "1952"
    output: "1953"
    name: "Concat_1042"
    op_type: "Concat"
    attribute {
      name: "axis"
      i: 0
      type: INT
    }
  }
  node {
    output: "1954"
    name: "Constant_1043"
    op_type: "Constant"
    attribute {
      name: "value"
      t {
        dims: 0
        data_type: 1
      }
      type: TENSOR
    }
  }
  node {
    output: "1955"
    name: "Constant_1044"
    op_type: "Constant"
    attribute {
      name: "value"
      t {
        dims: 0
        data_type: 1
      }
      type: TENSOR
    }
  }
  node {
    input: "1937"
    input: "1954"
    input: "1955"
    input: "1953"
    output: "1956"
    name: "Resize_1045"
    op_type: "Resize"
    attribute {
      name: "coordinate_transformation_mode"
      s: "pytorch_half_pixel"
      type: STRING
    }
    attribute {
      name: "cubic_coeff_a"
      f: -0.75
      type: FLOAT
    }
    attribute {
      name: "mode"
      s: "linear"
      type: STRING
    }
    attribute {
      name: "nearest_mode"
      s: "floor"
      type: STRING
    }
  }
  node {
    input: "1856"
    input: "1876"
    input: "1896"
    input: "1916"
    input: "1936"
    input: "1956"
    output: "1957"
    name: "Concat_1046"
    op_type: "Concat"
    attribute {
      name: "axis"
      i: 1
      type: INT
    }
  }
  node {
    input: "1957"
    input: "outconv.weight"
    input: "outconv.bias"
    output: "1958"
    name: "Conv_1047"
    op_type: "Conv"
    attribute {
      name: "dilations"
      ints: 1
      ints: 1
      type: INTS
    }
    attribute {
      name: "group"
      i: 1
      type: INT
    }
    attribute {
      name: "kernel_shape"
      ints: 1
      ints: 1
      type: INTS
    }
    attribute {
      name: "pads"
      ints: 0
      ints: 0
      ints: 0
      ints: 0
      type: INTS
    }
    attribute {
      name: "strides"
      ints: 1
      ints: 1
      type: INTS
    }
  }
  node {
    input: "1958"
    output: "d1"
    name: "Sigmoid_1048"
    op_type: "Sigmoid"
  }
  node {
    input: "1856"
    output: "d2"
    name: "Sigmoid_1049"
    op_type: "Sigmoid"
  }
  node {
    input: "1876"
    output: "d3"
    name: "Sigmoid_1050"
    op_type: "Sigmoid"
  }
  node {
    input: "1896"
    output: "d4"
    name: "Sigmoid_1051"
    op_type: "Sigmoid"
  }
  node {
    input: "1916"
    output: "d5"
    name: "Sigmoid_1052"
    op_type: "Sigmoid"
  }
  node {
    input: "1936"
    output: "d6"
    name: "Sigmoid_1053"
    op_type: "Sigmoid"
  }
  node {
    input: "1956"
    output: "d7"
    name: "Sigmoid_1054"
    op_type: "Sigmoid"
  }
  initializer {
      dims: 1
      dims: 64
      dims: 3
      dims: 3
      data_type: 1
      name: "side1.weight"
  }
  initializer {
      dims: 1
      data_type: 1
      name: "side1.bias"
  }
  initializer {
      dims: 1
      dims: 64
      dims: 3
      dims: 3
      data_type: 1
      name: "side2.weight"
  }
  initializer {
      dims: 1
      data_type: 1
      name: "side2.bias"
  }
  initializer {
      dims: 1
      dims: 128
      dims: 3
      dims: 3
      data_type: 1
      name: "side3.weight"
  }
  initializer {
      dims: 1
      data_type: 1
      name: "side3.bias"
  }
  initializer {
      dims: 1
      dims: 256
      dims: 3
      dims: 3
      data_type: 1
      name: "side4.weight"
  }
  initializer {
      dims: 1
      data_type: 1
      name: "side4.bias"
  }
  initializer {
      dims: 1
      dims: 512
      dims: 3
      dims: 3
      data_type: 1
      name: "side5.weight"
  }
  initializer {
      dims: 1
      data_type: 1
      name: "side5.bias"
  }
  initializer {
      dims: 1
      dims: 512
      dims: 3
      dims: 3
      data_type: 1
      name: "side6.weight"
  }
  initializer {
      dims: 1
      data_type: 1
      name: "side6.bias"
  }
  initializer {
      dims: 1
      dims: 6
      dims: 1
      dims: 1
      data_type: 1
      name: "outconv.weight"
  }
  initializer {
      dims: 1
      data_type: 1
      name: "outconv.bias"
  }
  initializer {
      dims: 64
      dims: 3
      dims: 3
      dims: 3
      data_type: 1
      name: "1967"
  }
  initializer {
      dims: 64
      data_type: 1
      name: "1968"
  }
  initializer {
      dims: 32
      dims: 64
      dims: 3
      dims: 3
      data_type: 1
      name: "1970"
  }
  initializer {
      dims: 32
      data_type: 1
      name: "1971"
  }
  initializer {
      dims: 32
      dims: 32
      dims: 3
      dims: 3
      data_type: 1
      name: "1973"
  }
  initializer {
      dims: 32
      data_type: 1
      name: "1974"
  }
  initializer {
      dims: 32
      dims: 32
      dims: 3
      dims: 3
      data_type: 1
      name: "1976"
  }
  initializer {
      dims: 32
      data_type: 1
      name: "1977"
  }
  initializer {
      dims: 32
      dims: 32
      dims: 3
      dims: 3
      data_type: 1
      name: "1979"
  }
  initializer {
      dims: 32
      data_type: 1
      name: "1980"
  }
  initializer {
      dims: 32
      dims: 32
      dims: 3
      dims: 3
      data_type: 1
      name: "1982"
  }
  initializer {
      dims: 32
      data_type: 1
      name: "1983"
  }
  initializer {
      dims: 32
      dims: 32
      dims: 3
      dims: 3
      data_type: 1
      name: "1985"
  }
  initializer {
      dims: 32
      data_type: 1
      name: "1986"
  }
  initializer {
      dims: 32
      dims: 32
      dims: 3
      dims: 3
      data_type: 1
      name: "1988"
  }
  initializer {
      dims: 32
      data_type: 1
      name: "1989"
  }
  initializer {
      dims: 32
      dims: 64
      dims: 3
      dims: 3
      data_type: 1
      name: "1991"
  }
  initializer {
      dims: 32
      data_type: 1
      name: "1992"
  }
  initializer {
      dims: 32
      dims: 64
      dims: 3
      dims: 3
      data_type: 1
      name: "1994"
  }
  initializer {
      dims: 32
      data_type: 1
      name: "1995"
  }
  initializer {
      dims: 32
      dims: 64
      dims: 3
      dims: 3
      data_type: 1
      name: "1997"
  }
  initializer {
      dims: 32
      data_type: 1
      name: "1998"
  }
  initializer {
      dims: 32
      dims: 64
      dims: 3
      dims: 3
      data_type: 1
      name: "2000"
  }
  initializer {
      dims: 32
      data_type: 1
      name: "2001"
  }
  initializer {
      dims: 32
      dims: 64
      dims: 3
      dims: 3
      data_type: 1
      name: "2003"
  }
  initializer {
      dims: 32
      data_type: 1
      name: "2004"
  }
  initializer {
      dims: 64
      dims: 64
      dims: 3
      dims: 3
      data_type: 1
      name: "2006"
  }
  initializer {
      dims: 64
      data_type: 1
      name: "2007"
  }
  initializer {
      dims: 128
      dims: 64
      dims: 3
      dims: 3
      data_type: 1
      name: "2009"
  }
  initializer {
      dims: 128
      data_type: 1
      name: "2010"
  }
  initializer {
      dims: 32
      dims: 128
      dims: 3
      dims: 3
      data_type: 1
      name: "2012"
  }
  initializer {
      dims: 32
      data_type: 1
      name: "2013"
  }
  initializer {
      dims: 32
      dims: 32
      dims: 3
      dims: 3
      data_type: 1
      name: "2015"
  }
  initializer {
      dims: 32
      data_type: 1
      name: "2016"
  }
  initializer {
      dims: 32
      dims: 32
      dims: 3
      dims: 3
      data_type: 1
      name: "2018"
  }
  initializer {
      dims: 32
      data_type: 1
      name: "2019"
  }
  initializer {
      dims: 32
      dims: 32
      dims: 3
      dims: 3
      data_type: 1
      name: "2021"
  }
  initializer {
      dims: 32
      data_type: 1
      name: "2022"
  }
  initializer {
      dims: 32
      dims: 32
      dims: 3
      dims: 3
      data_type: 1
      name: "2024"
  }
  initializer {
      dims: 32
      data_type: 1
      name: "2025"
  }
  initializer {
      dims: 32
      dims: 32
      dims: 3
      dims: 3
      data_type: 1
      name: "2027"
  }
  initializer {
      dims: 32
      data_type: 1
      name: "2028"
  }
  initializer {
      dims: 32
      dims: 64
      dims: 3
      dims: 3
      data_type: 1
      name: "2030"
  }
  initializer {
      dims: 32
      data_type: 1
      name: "2031"
  }
  initializer {
      dims: 32
      dims: 64
      dims: 3
      dims: 3
      data_type: 1
      name: "2033"
  }
  initializer {
      dims: 32
      data_type: 1
      name: "2034"
  }
  initializer {
      dims: 32
      dims: 64
      dims: 3
      dims: 3
      data_type: 1
      name: "2036"
  }
  initializer {
      dims: 32
      data_type: 1
      name: "2037"
  }
  initializer {
      dims: 32
      dims: 64
      dims: 3
      dims: 3
      data_type: 1
      name: "2039"
  }
  initializer {
      dims: 32
      data_type: 1
      name: "2040"
  }
  initializer {
      dims: 128
      dims: 64
      dims: 3
      dims: 3
      data_type: 1
      name: "2042"
  }
  initializer {
      dims: 128
      data_type: 1
      name: "2043"
  }
  initializer {
      dims: 256
      dims: 128
      dims: 3
      dims: 3
      data_type: 1
      name: "2045"
  }
  initializer {
      dims: 256
      data_type: 1
      name: "2046"
  }
  initializer {
      dims: 64
      dims: 256
      dims: 3
      dims: 3
      data_type: 1
      name: "2048"
  }
  initializer {
      dims: 64
      data_type: 1
      name: "2049"
  }
  initializer {
      dims: 64
      dims: 64
      dims: 3
      dims: 3
      data_type: 1
      name: "2051"
  }
  initializer {
      dims: 64
      data_type: 1
      name: "2052"
  }
  initializer {
      dims: 64
      dims: 64
      dims: 3
      dims: 3
      data_type: 1
      name: "2054"
  }
  initializer {
      dims: 64
      data_type: 1
      name: "2055"
  }
  initializer {
      dims: 64
      dims: 64
      dims: 3
      dims: 3
      data_type: 1
      name: "2057"
  }
  initializer {
      dims: 64
      data_type: 1
      name: "2058"
  }
  initializer {
      dims: 64
      dims: 64
      dims: 3
      dims: 3
      data_type: 1
      name: "2060"
  }
  initializer {
      dims: 64
      data_type: 1
      name: "2061"
  }
  initializer {
      dims: 64
      dims: 128
      dims: 3
      dims: 3
      data_type: 1
      name: "2063"
  }
  initializer {
      dims: 64
      data_type: 1
      name: "2064"
  }
  initializer {
      dims: 64
      dims: 128
      dims: 3
      dims: 3
      data_type: 1
      name: "2066"
  }
  initializer {
      dims: 64
      data_type: 1
      name: "2067"
  }
  initializer {
      dims: 64
      dims: 128
      dims: 3
      dims: 3
      data_type: 1
      name: "2069"
  }
  initializer {
      dims: 64
      data_type: 1
      name: "2070"
  }
  initializer {
      dims: 256
      dims: 128
      dims: 3
      dims: 3
      data_type: 1
      name: "2072"
  }
  initializer {
      dims: 256
      data_type: 1
      name: "2073"
  }
  initializer {
      dims: 512
      dims: 256
      dims: 3
      dims: 3
      data_type: 1
      name: "2075"
  }
  initializer {
      dims: 512
      data_type: 1
      name: "2076"
  }
  initializer {
      dims: 128
      dims: 512
      dims: 3
      dims: 3
      data_type: 1
      name: "2078"
  }
  initializer {
      dims: 128
      data_type: 1
      name: "2079"
  }
  initializer {
      dims: 128
      dims: 128
      dims: 3
      dims: 3
      data_type: 1
      name: "2081"
  }
  initializer {
      dims: 128
      data_type: 1
      name: "2082"
  }
  initializer {
      dims: 128
      dims: 128
      dims: 3
      dims: 3
      data_type: 1
      name: "2084"
  }
  initializer {
      dims: 128
      data_type: 1
      name: "2085"
  }
  initializer {
      dims: 128
      dims: 128
      dims: 3
      dims: 3
      data_type: 1
      name: "2087"
  }
  initializer {
      dims: 128
      data_type: 1
      name: "2088"
  }
  initializer {
      dims: 128
      dims: 256
      dims: 3
      dims: 3
      data_type: 1
      name: "2090"
  }
  initializer {
      dims: 128
      data_type: 1
      name: "2091"
  }
  initializer {
      dims: 128
      dims: 256
      dims: 3
      dims: 3
      data_type: 1
      name: "2093"
  }
  initializer {
      dims: 128
      data_type: 1
      name: "2094"
  }
  initializer {
      dims: 512
      dims: 256
      dims: 3
      dims: 3
      data_type: 1
      name: "2096"
  }
  initializer {
      dims: 512
      data_type: 1
      name: "2097"
  }
  initializer {
      dims: 512
      dims: 512
      dims: 3
      dims: 3
      data_type: 1
      name: "2099"
  }
  initializer {
      dims: 512
      data_type: 1
      name: "2100"
  }
  initializer {
      dims: 256
      dims: 512
      dims: 3
      dims: 3
      data_type: 1
      name: "2102"
  }
  initializer {
      dims: 256
      data_type: 1
      name: "2103"
  }
  initializer {
      dims: 256
      dims: 256
      dims: 3
      dims: 3
      data_type: 1
      name: "2105"
  }
  initializer {
      dims: 256
      data_type: 1
      name: "2106"
  }
  initializer {
      dims: 256
      dims: 256
      dims: 3
      dims: 3
      data_type: 1
      name: "2108"
  }
  initializer {
      dims: 256
      data_type: 1
      name: "2109"
  }
  initializer {
      dims: 256
      dims: 256
      dims: 3
      dims: 3
      data_type: 1
      name: "2111"
  }
  initializer {
      dims: 256
      data_type: 1
      name: "2112"
  }
  initializer {
      dims: 256
      dims: 512
      dims: 3
      dims: 3
      data_type: 1
      name: "2114"
  }
  initializer {
      dims: 256
      data_type: 1
      name: "2115"
  }
  initializer {
      dims: 256
      dims: 512
      dims: 3
      dims: 3
      data_type: 1
      name: "2117"
  }
  initializer {
      dims: 256
      data_type: 1
      name: "2118"
  }
  initializer {
      dims: 512
      dims: 512
      dims: 3
      dims: 3
      data_type: 1
      name: "2120"
  }
  initializer {
      dims: 512
      data_type: 1
      name: "2121"
  }
  initializer {
      dims: 512
      dims: 512
      dims: 3
      dims: 3
      data_type: 1
      name: "2123"
  }
  initializer {
      dims: 512
      data_type: 1
      name: "2124"
  }
  initializer {
      dims: 256
      dims: 512
      dims: 3
      dims: 3
      data_type: 1
      name: "2126"
  }
  initializer {
      dims: 256
      data_type: 1
      name: "2127"
  }
  initializer {
      dims: 256
      dims: 256
      dims: 3
      dims: 3
      data_type: 1
      name: "2129"
  }
  initializer {
      dims: 256
      data_type: 1
      name: "2130"
  }
  initializer {
      dims: 256
      dims: 256
      dims: 3
      dims: 3
      data_type: 1
      name: "2132"
  }
  initializer {
      dims: 256
      data_type: 1
      name: "2133"
  }
  initializer {
      dims: 256
      dims: 256
      dims: 3
      dims: 3
      data_type: 1
      name: "2135"
  }
  initializer {
      dims: 256
      data_type: 1
      name: "2136"
  }
  initializer {
      dims: 256
      dims: 512
      dims: 3
      dims: 3
      data_type: 1
      name: "2138"
  }
  initializer {
      dims: 256
      data_type: 1
      name: "2139"
  }
  initializer {
      dims: 256
      dims: 512
      dims: 3
      dims: 3
      data_type: 1
      name: "2141"
  }
  initializer {
      dims: 256
      data_type: 1
      name: "2142"
  }
  initializer {
      dims: 512
      dims: 512
      dims: 3
      dims: 3
      data_type: 1
      name: "2144"
  }
  initializer {
      dims: 512
      data_type: 1
      name: "2145"
  }
  initializer {
      dims: 512
      dims: 1024
      dims: 3
      dims: 3
      data_type: 1
      name: "2147"
  }
  initializer {
      dims: 512
      data_type: 1
      name: "2148"
  }
  initializer {
      dims: 256
      dims: 512
      dims: 3
      dims: 3
      data_type: 1
      name: "2150"
  }
  initializer {
      dims: 256
      data_type: 1
      name: "2151"
  }
  initializer {
      dims: 256
      dims: 256
      dims: 3
      dims: 3
      data_type: 1
      name: "2153"
  }
  initializer {
      dims: 256
      data_type: 1
      name: "2154"
  }
  initializer {
      dims: 256
      dims: 256
      dims: 3
      dims: 3
      data_type: 1
      name: "2156"
  }
  initializer {
      dims: 256
      data_type: 1
      name: "2157"
  }
  initializer {
      dims: 256
      dims: 256
      dims: 3
      dims: 3
      data_type: 1
      name: "2159"
  }
  initializer {
      dims: 256
      data_type: 1
      name: "2160"
  }
  initializer {
      dims: 256
      dims: 512
      dims: 3
      dims: 3
      data_type: 1
      name: "2162"
  }
  initializer {
      dims: 256
      data_type: 1
      name: "2163"
  }
  initializer {
      dims: 256
      dims: 512
      dims: 3
      dims: 3
      data_type: 1
      name: "2165"
  }
  initializer {
      dims: 256
      data_type: 1
      name: "2166"
  }
  initializer {
      dims: 512
      dims: 512
      dims: 3
      dims: 3
      data_type: 1
      name: "2168"
  }
  initializer {
      dims: 512
      data_type: 1
      name: "2169"
  }
  initializer {
      dims: 256
      dims: 1024
      dims: 3
      dims: 3
      data_type: 1
      name: "2171"
  }
  initializer {
      dims: 256
      data_type: 1
      name: "2172"
  }
  initializer {
      dims: 128
      dims: 256
      dims: 3
      dims: 3
      data_type: 1
      name: "2174"
  }
  initializer {
      dims: 128
      data_type: 1
      name: "2175"
  }
  initializer {
      dims: 128
      dims: 128
      dims: 3
      dims: 3
      data_type: 1
      name: "2177"
  }
  initializer {
      dims: 128
      data_type: 1
      name: "2178"
  }
  initializer {
      dims: 128
      dims: 128
      dims: 3
      dims: 3
      data_type: 1
      name: "2180"
  }
  initializer {
      dims: 128
      data_type: 1
      name: "2181"
  }
  initializer {
      dims: 128
      dims: 128
      dims: 3
      dims: 3
      data_type: 1
      name: "2183"
  }
  initializer {
      dims: 128
      data_type: 1
      name: "2184"
  }
  initializer {
      dims: 128
      dims: 256
      dims: 3
      dims: 3
      data_type: 1
      name: "2186"
  }
  initializer {
      dims: 128
      data_type: 1
      name: "2187"
  }
  initializer {
      dims: 128
      dims: 256
      dims: 3
      dims: 3
      data_type: 1
      name: "2189"
  }
  initializer {
      dims: 128
      data_type: 1
      name: "2190"
  }
  initializer {
      dims: 256
      dims: 256
      dims: 3
      dims: 3
      data_type: 1
      name: "2192"
  }
  initializer {
      dims: 256
      data_type: 1
      name: "2193"
  }
  initializer {
      dims: 128
      dims: 512
      dims: 3
      dims: 3
      data_type: 1
      name: "2195"
  }
  initializer {
      dims: 128
      data_type: 1
      name: "2196"
  }
  initializer {
      dims: 64
      dims: 128
      dims: 3
      dims: 3
      data_type: 1
      name: "2198"
  }
  initializer {
      dims: 64
      data_type: 1
      name: "2199"
  }
  initializer {
      dims: 64
      dims: 64
      dims: 3
      dims: 3
      data_type: 1
      name: "2201"
  }
  initializer {
      dims: 64
      data_type: 1
      name: "2202"
  }
  initializer {
      dims: 64
      dims: 64
      dims: 3
      dims: 3
      data_type: 1
      name: "2204"
  }
  initializer {
      dims: 64
      data_type: 1
      name: "2205"
  }
  initializer {
      dims: 64
      dims: 64
      dims: 3
      dims: 3
      data_type: 1
      name: "2207"
  }
  initializer {
      dims: 64
      data_type: 1
      name: "2208"
  }
  initializer {
      dims: 64
      dims: 64
      dims: 3
      dims: 3
      data_type: 1
      name: "2210"
  }
  initializer {
      dims: 64
      data_type: 1
      name: "2211"
  }
  initializer {
      dims: 64
      dims: 128
      dims: 3
      dims: 3
      data_type: 1
      name: "2213"
  }
  initializer {
      dims: 64
      data_type: 1
      name: "2214"
  }
  initializer {
      dims: 64
      dims: 128
      dims: 3
      dims: 3
      data_type: 1
      name: "2216"
  }
  initializer {
      dims: 64
      data_type: 1
      name: "2217"
  }
  initializer {
      dims: 64
      dims: 128
      dims: 3
      dims: 3
      data_type: 1
      name: "2219"
  }
  initializer {
      dims: 64
      data_type: 1
      name: "2220"
  }
  initializer {
      dims: 128
      dims: 128
      dims: 3
      dims: 3
      data_type: 1
      name: "2222"
  }
  initializer {
      dims: 128
      data_type: 1
      name: "2223"
  }
  initializer {
      dims: 64
      dims: 256
      dims: 3
      dims: 3
      data_type: 1
      name: "2225"
  }
  initializer {
      dims: 64
      data_type: 1
      name: "2226"
  }
  initializer {
      dims: 32
      dims: 64
      dims: 3
      dims: 3
      data_type: 1
      name: "2228"
  }
  initializer {
      dims: 32
      data_type: 1
      name: "2229"
  }
  initializer {
      dims: 32
      dims: 32
      dims: 3
      dims: 3
      data_type: 1
      name: "2231"
  }
  initializer {
      dims: 32
      data_type: 1
      name: "2232"
  }
  initializer {
      dims: 32
      dims: 32
      dims: 3
      dims: 3
      data_type: 1
      name: "2234"
  }
  initializer {
      dims: 32
      data_type: 1
      name: "2235"
  }
  initializer {
      dims: 32
      dims: 32
      dims: 3
      dims: 3
      data_type: 1
      name: "2237"
  }
  initializer {
      dims: 32
      data_type: 1
      name: "2238"
  }
  initializer {
      dims: 32
      dims: 32
      dims: 3
      dims: 3
      data_type: 1
      name: "2240"
  }
  initializer {
      dims: 32
      data_type: 1
      name: "2241"
  }
  initializer {
      dims: 32
      dims: 32
      dims: 3
      dims: 3
      data_type: 1
      name: "2243"
  }
  initializer {
      dims: 32
      data_type: 1
      name: "2244"
  }
  initializer {
      dims: 32
      dims: 64
      dims: 3
      dims: 3
      data_type: 1
      name: "2246"
  }
  initializer {
      dims: 32
      data_type: 1
      name: "2247"
  }
  initializer {
      dims: 32
      dims: 64
      dims: 3
      dims: 3
      data_type: 1
      name: "2249"
  }
  initializer {
      dims: 32
      data_type: 1
      name: "2250"
  }
  initializer {
      dims: 32
      dims: 64
      dims: 3
      dims: 3
      data_type: 1
      name: "2252"
  }
  initializer {
      dims: 32
      data_type: 1
      name: "2253"
  }
  initializer {
      dims: 32
      dims: 64
      dims: 3
      dims: 3
      data_type: 1
      name: "2255"
  }
  initializer {
      dims: 32
      data_type: 1
      name: "2256"
  }
  initializer {
      dims: 64
      dims: 64
      dims: 3
      dims: 3
      data_type: 1
      name: "2258"
  }
  initializer {
      dims: 64
      data_type: 1
      name: "2259"
  }
  initializer {
      dims: 64
      dims: 128
      dims: 3
      dims: 3
      data_type: 1
      name: "2261"
  }
  initializer {
      dims: 64
      data_type: 1
      name: "2262"
  }
  initializer {
      dims: 16
      dims: 64
      dims: 3
      dims: 3
      data_type: 1
      name: "2264"
  }
  initializer {
      dims: 16
      data_type: 1
      name: "2265"
  }
  initializer {
      dims: 16
      dims: 16
      dims: 3
      dims: 3
      data_type: 1
      name: "2267"
  }
  initializer {
      dims: 16
      data_type: 1
      name: "2268"
  }
  initializer {
      dims: 16
      dims: 16
      dims: 3
      dims: 3
      data_type: 1
      name: "2270"
  }
  initializer {
      dims: 16
      data_type: 1
      name: "2271"
  }
  initializer {
      dims: 16
      dims: 16
      dims: 3
      dims: 3
      data_type: 1
      name: "2273"
  }
  initializer {
      dims: 16
      data_type: 1
      name: "2274"
  }
  initializer {
      dims: 16
      dims: 16
      dims: 3
      dims: 3
      data_type: 1
      name: "2276"
  }
  initializer {
      dims: 16
      data_type: 1
      name: "2277"
  }
  initializer {
      dims: 16
      dims: 16
      dims: 3
      dims: 3
      data_type: 1
      name: "2279"
  }
  initializer {
      dims: 16
      data_type: 1
      name: "2280"
  }
  initializer {
      dims: 16
      dims: 16
      dims: 3
      dims: 3
      data_type: 1
      name: "2282"
  }
  initializer {
      dims: 16
      data_type: 1
      name: "2283"
  }
  initializer {
      dims: 16
      dims: 32
      dims: 3
      dims: 3
      data_type: 1
      name: "2285"
  }
  initializer {
      dims: 16
      data_type: 1
      name: "2286"
  }
  initializer {
      dims: 16
      dims: 32
      dims: 3
      dims: 3
      data_type: 1
      name: "2288"
  }
  initializer {
      dims: 16
      data_type: 1
      name: "2289"
  }
  initializer {
      dims: 16
      dims: 32
      dims: 3
      dims: 3
      data_type: 1
      name: "2291"
  }
  initializer {
      dims: 16
      data_type: 1
      name: "2292"
  }
  initializer {
      dims: 16
      dims: 32
      dims: 3
      dims: 3
      data_type: 1
      name: "2294"
  }
  initializer {
      dims: 16
      data_type: 1
      name: "2295"
  }
  initializer {
      dims: 16
      dims: 32
      dims: 3
      dims: 3
      data_type: 1
      name: "2297"
  }
  initializer {
      dims: 16
      data_type: 1
      name: "2298"
  }
  initializer {
      dims: 64
      dims: 32
      dims: 3
      dims: 3
      data_type: 1
      name: "2300"
  }
  initializer {
      dims: 64
      data_type: 1
      name: "2301"
  }
  input {
    name: "image"
    type {
      tensor_type {
        elem_type: 1
        shape {
          dim {
            dim_value: 1
          }
          dim {
            dim_value: 3
          }
          dim {
            dim_value: 320
          }
          dim {
            dim_value: 320
          }
        }
      }
    }
  }
  output {
    name: "d1"
    type {
      tensor_type {
        elem_type: 1
        shape {
          dim {
            dim_value: 1
          }
          dim {
            dim_value: 1
          }
          dim {
            dim_value: 320
          }
          dim {
            dim_value: 320
          }
        }
      }
    }
  }
  output {
    name: "d2"
    type {
      tensor_type {
        elem_type: 1
        shape {
          dim {
            dim_value: 1
          }
          dim {
            dim_value: 1
          }
          dim {
            dim_value: 320
          }
          dim {
            dim_value: 320
          }
        }
      }
    }
  }
  output {
    name: "d3"
    type {
      tensor_type {
        elem_type: 1
        shape {
          dim {
            dim_param: "Sigmoidd3_dim_0"
          }
          dim {
            dim_param: "Sigmoidd3_dim_1"
          }
          dim {
            dim_param: "Sigmoidd3_dim_2"
          }
          dim {
            dim_param: "Sigmoidd3_dim_3"
          }
        }
      }
    }
  }
  output {
    name: "d4"
    type {
      tensor_type {
        elem_type: 1
        shape {
          dim {
            dim_param: "Sigmoidd4_dim_0"
          }
          dim {
            dim_param: "Sigmoidd4_dim_1"
          }
          dim {
            dim_param: "Sigmoidd4_dim_2"
          }
          dim {
            dim_param: "Sigmoidd4_dim_3"
          }
        }
      }
    }
  }
  output {
    name: "d5"
    type {
      tensor_type {
        elem_type: 1
        shape {
          dim {
            dim_param: "Sigmoidd5_dim_0"
          }
          dim {
            dim_param: "Sigmoidd5_dim_1"
          }
          dim {
            dim_param: "Sigmoidd5_dim_2"
          }
          dim {
            dim_param: "Sigmoidd5_dim_3"
          }
        }
      }
    }
  }
  output {
    name: "d6"
    type {
      tensor_type {
        elem_type: 1
        shape {
          dim {
            dim_param: "Sigmoidd6_dim_0"
          }
          dim {
            dim_param: "Sigmoidd6_dim_1"
          }
          dim {
            dim_param: "Sigmoidd6_dim_2"
          }
          dim {
            dim_param: "Sigmoidd6_dim_3"
          }
        }
      }
    }
  }
  output {
    name: "d7"
    type {
      tensor_type {
        elem_type: 1
        shape {
          dim {
            dim_param: "Sigmoidd7_dim_0"
          }
          dim {
            dim_param: "Sigmoidd7_dim_1"
          }
          dim {
            dim_param: "Sigmoidd7_dim_2"
          }
          dim {
            dim_param: "Sigmoidd7_dim_3"
          }
        }
      }
    }
  }
}
opset_import {
  version: 11
}
